results/images/model_dir/topic_embeddings.safetensors (safetensors, 143448 bytes, 1 tensors)

topic_embeddings f4 [35, 1024]
0.00523407 -0.008486023 -0.005357657 0.026126374 -0.029239366 -0.041707758 -0.02040703 0.008676289
0.0126133915 0.0284413 0.015090679 0.008904541 0.015233684 -0.011907094 -0.028032918 -0.010250013
0.004034449 -0.00023618311 0.005247863 -0.001775694 0.010691939 -0.0023097065 -0.025811307 -0.02985281
-0.011759655 0.017271016 -0.0046520126 -0.0033772301 0.06617068 0.042843718 -0.019620946 -0.0018252691
0.016440084 -0.044555835 -0.0069165356 -0.023473147 0.02193072 -0.01443252 -0.017392846 -0.03372587
-0.012414398 -0.008818267 0.027071169 -0.020815717 -0.04617978 0.004904923 -0.0026030752 -0.018555894
0.014305338 -0.035882108 -0.01237295 0.024404347 0.020026 0.007181584 0.007453311 -0.014419735
-0.0060043377 -0.0039404747 0.0031401194 -0.004308938 0.028334316 0.0065838974 0.027046949 -0.065422714
0.021688256 0.01026241 -0.0074712834 -0.0033910312 -0.000898317 -0.0014803708 -0.011921557 -0.0026494293
-0.02768111 -0.02359691 -0.0066467845 0.010736193 -0.009922849 -0.010147488 0.0007905722 0.010166882
0.0010638966 0.017253637 -4.1550167e-05 -0.009621448 -0.051809993 0.0071082786 0.01727193 0.025164546
0.016640076 0.013040332 0.0035232608 0.036107447 -0.010649955 0.00088913034 0.023802537 0.04398397
-0.020457698 0.022819223 -0.007895282 0.0034693794 0.01110513 0.025221258 -0.013187822 0.05329837
-0.031778112 0.0069613745 0.02219124 -0.020000728 0.017717225 -0.028256735 -0.014056141 -0.01003266
-0.0091897845 -0.008863298 -0.000994742 0.029156733 -0.014363898 0.01513489 -0.0391267 0.015774984
0.0040900027 0.010559836 0.019970497 -0.014221533 -0.001984434 -0.019660426 0.0063867527 0.023012437
-0.03279942 0.0011772892 0.0017099219 -0.032993257 0.0060594734 0.0068287356 0.0070255604 0.013148505
5.8659138e-05 0.034407552 0.017598974 -0.00945747 -0.0042621344 0.021245042 0.00070914556 0.07786436
-0.0068962183 0.0225394 -0.01512388 0.0116332825 -0.023208281 0.022466319 -0.004911351 0.001703147
-0.0013503623 0.0143472785 0.008389691 -0.026489178 0.013966028 0.018142344 0.011067823 0.029488275
0.0028123127 0.03034069 -0.004849653 0.016644133 -0.02673953 0.028899785 -0.01992778 0.004381195
-0.021996666 -0.022740789 0.041517947 0.010044804 -0.024869861 -0.00059351855 0.029398207 0.023501603
0.025001165 0.009626801 0.035920676 0.012697903 -0.010568583 0.00011979301 -0.0021280767 0.0429575
-0.002202906 0.0030062683 0.0139572285 -0.014938401 -0.0040872106 -0.02902906 -0.004045059 0.011397577
-0.02215087 0.025546875 0.012125364 0.002541522 -0.039225932 -0.0057203225 0.009019799 -0.03569259
-0.033416234 0.033243243 -0.020905344 0.022431932 -0.016157392 -0.011636933 0.024774365 0.043042943
-0.039665695 0.00083582266 0.032799236 0.026013168 -0.0067329225 -0.02342124 0.014240125 -0.01304342
-0.011008178 0.034090962 -0.015656542 0.0036577038 -0.0060942047 0.0137961395 0.018896291 0.021791898
0.011113746 -0.0034542384 0.0090708705 0.03588816 -0.01569473 -0.014375896 -0.006369069 0.018404996
0.020046156 0.037148967 0.02254151 0.011602352 0.03702993 0.015253212 0.0076278 0.025434732
0.010263727 0.013648613 0.036313154 0.025659304 -0.011337807 0.02481199 0.0020171474 -0.022575984
0.0036554853 0.023453733 -0.018198328 0.035690565 0.024174316 0.025220914 -0.054892644 -0.0056229653
00000000: 9082 ab3b f608 0bbc 498f afbb fa06 d63c
00000010: 6587 efbc c1d5 2abd a52c a7bc fe26 0e3c
00000020: 66a8 4e3c bbfd e83c e53e 773c 5ae4 113c
00000030: b496 793c f915 43bc 4aa5 e5bc acef 27bc
00000040: 6933 843b eca7 77b9 44f6 ab3b 67be e8ba
00000050: 3e2d 2f3c 725e 17bb 3c72 d3bc e18d f4bc
00000060: 91ab 40bc f27b 8d3c e96f 98bb 8554 5dbb
00000070: 7e84 873d e57c 2f3d 1bbc a0bc de3d efba
00000080: 5bad 863c 2e80 36bd 1ba4 e2bb c24a c0bc
00000090: 0ea8 b33c 6076 6cbc 717b 8ebc 2324 0abd
000000a0: c265 4bbc 7e7a 10bc 5bc4 dd3c b985 aabc
000000b0: 0227 3dbd 7ab9 a03b 5b98 2abb 8802 98bc
000000c0: f060 6a3c 1ef9 12bd eab7 4abc a0eb c73c
000000d0: 910d a43c 7e53 eb3b e73a f43b c140 6cbc
000000e0: 09c0 c4bb 191f 81bb 76ca 4d3b fe31 8dbb
000000f0: 5e1d e83c bcbd d73b 9091 dd3c 58fc 85bd
00000100: 92ab b13c ab23 283c abd1 f4bb 103c 5ebb
00000110: 097d 6bba 0009 c2ba a252 43bc 0ca2 2dbb
00000120: 7fc3 e2bc 4f4e c1bc 45cd d9bb dbe6 2f3c
00000130: 7293 22bc a641 26bc 673e 4f3a fe92 263c
00000140: 7272 8b3a 8057 8d3c 2746 2eb8 47a3 1dbc
00000150: b736 54bd 90ec e83b dd7d 8d3c e125 ce3c
00000160: c550 883c 1ea7 553c 82e6 663b 67e5 133d
00000170: 267d 2ebc 8714 693a 8afd c23c 8928 343d
00000180: e796 a7bc 61ef ba3c 365b 01bc 875e 633b
00000190: 4bf2 353c d09c ce3c bc11 58bc 644f 5a3d
000001a0: c429 02bd 3e1c e43b 67ca b53c 91d8 a3bc
000001b0: b723 913c ab7a e7bc ba4b 66bc 0760 24bc
000001c0: c090 16bc 5e37 11bc 0162 82ba 1ada ee3c
000001d0: 8e56 6bbc 54f8 773c 5243 20bd 8a3a 813c
000001e0: 6e05 863b 2a03 2d3c 2b99 a33c 6f01 69bc
000001f0: 470d 02bb e70e a1bc f747 d13b 9484 bc3c
00000200: af58 06bd 454f 9a3a 751f e03a f023 07bd
00000210: 8c8e c63b 96c3 df3b ac36 e63b d46c 573c
00000220: c508 7638 efee 0c3d b92b 903c 81f3 1abc
00000230: 60a9 8bbb 150a ae3c f4e5 393a 5977 9f3d
00000240: acf9 e1bb 8ca4 b83c 26ca 77bc 8699 3e3c
00000250: 4b1f bebc 490b b83c 66ef a0bb 213c df3a
00000260: a4fe b0ba d910 6b3c ea74 093c d5ff d8bc
00000270: c4d1 643c 419f 943c d055 353c 6591 f13c
00000280: c74e 383b 0a8d f83c d7e9 9ebb 4759 883c
00000290: dc0c dbbc 3ebf ec3c 953f a3bc 2190 8f3b
000002a0: 5a32 b4bc e44a babc b90e 2a3d f692 243c
000002b0: e1bb cbbc 5b96 1bba 82d4 f03c 6f86 c03c
000002c0: 3ecf cc3c bbb9 1d3c 8f21 133d de0a 503c
000002d0: da27 2dbc 6239 fb38 3477 0bbb 34f4 2f3d
000002e0: a15e 10bb d004 453b dcac 643c 32c0 74bc
000002f0: 02ee 85bb 5ace edbc 6a8c 84bb e7bc 3a3c
00000300: be75 b5bc ae47 d13c 76a9 463c aa8f 263b
00000310: 5fab 20bd 8b71 bbbb c7c7 133c 6532 12bd
00000320: 76df 08bd 112a 083d af41 abbc 2cc3 b73c
00000330: 825c 84bc d6a8 3ebc 9cf3 ca3c cc4d 303d
00000340: 7f78 22bd 1c1b 5b3a 7e58 063d 9119 d53c
00000350: d99f dcbb e6dd bfbc 6a4f 693c 12b4 55bc
00000360: a55b 34bc f7a2 0b3d 2642 80bc 16b6 6f3b
00000370: e5b1 c7bb 3409 623c 65cc 9a3c ec84 b23c
00000380: 6e16 363c 8160 62bb fd9d 143c 77ff 123d
00000390: 3c92 80bc e188 6bbc a0b3 d0bb 13c6 963c
000003a0: d637 a43c 8429 183d f9a8 b83c cb17 3e3c
000003b0: b2ac 173d 9ce8 793c a0f2 f93b 805c d03c
000003c0: 3129 283c 6f9e 5f3c 1abd 143d 7633 d23c
000003d0: 36c2 39bc 8442 cb3c 1e32 043b 45f1 b8bc
000003e0: de90 6f3b 0b22 c03c a914 95bc 4530 123d
000003f0: 3709 c63c 179c ce3c 1cd7 60bd da40 b8bb
