results/models/topic_model/ctfidf.safetensors (safetensors, 144020 bytes, 4 tensors)

data f8 [8723]
0	0x3f3bdce7569dbecf	0.0004251541891937384
1	0x3f5477d97813020c	0.0012492774697393542
2	0x3f4477d97813020c	0.0006246387348696771
3	0x3f587c962a87c0ed	0.0014945475069190709
4	0x3f48267b807dd18e	0.0007370093380659069
5	0x3f30d867022a2cdf	0.0002570392117966068
6	0x3f35fdc3d2c1d9df	0.000335560139098771
7	0x3f4a4e0b57e4039d	0.0008027606379813372
8	0x3f4bfb6d94c4dd94	0.0008539471687418082
9	0x3f45fdc3d2c1d9df	0.000671120278197542
10	0x3f4256c9f537b220	0.0005596624491182624
11	0x3f41895ce542ad13	0.0005351737586542247
12	0x3f3bdce7569dbecf	0.0004251541891937384
13	0x3f35fdc3d2c1d9df	0.000335560139098771
14	0x3f31895ce542ad13	0.00026758687932711237
15	0x3f4256c9f537b220	0.0005596624491182624
16	0x3f507e52de116367	0.001006680417296313
17	0x3f3bdce7569dbecf	0.0004251541891937384
18	0x3f3bdce7569dbecf	0.0004251541891937384
19	0x3f48267b807dd18e	0.0007370093380659069
20	0x3f3bdce7569dbecf	0.0004251541891937384
21	0x3f3bdce7569dbecf	0.0004251541891937384
22	0x3f31895ce542ad13	0.00026758687932711237
23	0x3f3bdce7569dbecf	0.0004251541891937384
24	0x3f40d867022a2cdf	0.0005140784235932136
25	0x3f48267b807dd18e	0.0007370093380659069
26	0x3f48267b807dd18e	0.0007370093380659069
27	0x3f35fdc3d2c1d9df	0.000335560139098771
28	0x3f517fb570903a4d	0.0010680457946851297
29	0x3f51895ce542ad13	0.0010703475173084495
30	0x3f3bdce7569dbecf	0.0004251541891937384
31	0x3f3bdce7569dbecf	0.0004251541891937384
32	0x3f4477d97813020c	0.0006246387348696771
33	0x3f3bdce7569dbecf	0.0004251541891937384
34	0x3f59da8ce0ef73e8	0.001577985359964668
35	0x3f35fdc3d2c1d9df	0.000335560139098771
36	0x3f581de6a7439784	0.0014719727014891057
37	0x3f3bdce7569dbecf	0.0004251541891937384
38	0x3f4aabb5e8e4c1fd	0.0008139265280871496
39	0x3f38267b807dd18e	0.00036850466903295346
40	0x3f35fdc3d2c1d9df	0.000335560139098771
41	0x3f31895ce542ad13	0.00026758687932711237
42	0x3f3bdce7569dbecf	0.0004251541891937384
43	0x3f4eb3c6341c8310	0.0009369581023045154
44	0x3f4b4f80b987eec4	0.0008334520853731865
45	0x3f3bdce7569dbecf	0.0004251541891937384
46	0x3f3bdce7569dbecf	0.0004251541891937384
47	0x3f41895ce542ad13	0.0005351737586542247
48	0x3f40c3b4ea119df9	0.000511611306262815
49	0x3f48267b807dd18e	0.0007370093380659069
50	0x3f3bdce7569dbecf	0.0004251541891937384
51	0x3f3bdce7569dbecf	0.0004251541891937384
52	0x3f532257f79cc057	0.0011678561263117804
53	0x3f55a81efa3e6174	0.0013218214525974855
54	0x3f3bdce7569dbecf	0.0004251541891937384
55	0x3f3bdce7569dbecf	0.0004251541891937384
56	0x3f587aba423234b3	0.0014941042834693385
57	0x3f38267b807dd18e	0.00036850466903295346
58	0x3f60d867022a2cdf	0.0020563136943728545
59	0x3f42844cfdc618d8	0.0005650878843404218
60	0x3f3bdce7569dbecf	0.0004251541891937384
61	0x3f3bdce7569dbecf	0.0004251541891937384
62	0x3f3bdce7569dbecf	0.0004251541891937384
63	0x3f5483b04cea7439	0.001252100151453618
64	0x3f3bdce7569dbecf	0.0004251541891937384
65	0x3f35fdc3d2c1d9df	0.000335560139098771
66	0x3f3bdce7569dbecf	0.0004251541891937384
67	0x3f3bdce7569dbecf	0.0004251541891937384
68	0x3f3bdce7569dbecf	0.0004251541891937384
69	0x3f3477d97813020c	0.00031231936743483855
70	0x3f5c1b90b32ddec9	0.0017155564389365488
71	0x3f5b8c28efd8b90a	0.0016813659452839546
72	0x3f3bdce7569dbecf	0.0004251541891937384
73	0x3f3bdce7569dbecf	0.0004251541891937384
74	0x3f35fdc3d2c1d9df	0.000335560139098771
75	0x3f4d8c0eb7ed16c1	0.0009017059199798104
76	0x3f3b4f80b987eec4	0.00041672604268659327
77	0x3f3bdce7569dbecf	0.0004251541891937384
78	0x3f3bdce7569dbecf	0.0004251541891937384
79	0x3f3bdce7569dbecf	0.0004251541891937384
80	0x3f534b1eec3612d1	0.0011775781611912848
81	0x3f3bdce7569dbecf	0.0004251541891937384
82	0x3f3bdce7569dbecf	0.0004251541891937384
83	0x3f4eb3c6341c8310	0.0009369581023045154
84	0x3f38267b807dd18e	0.00036850466903295346
85	0x3f3477d97813020c	0.00031231936743483855
86	0x3f334b1eec3612d1	0.0002943945402978212
87	0x3f35fdc3d2c1d9df	0.000335560139098771
88	0x3f3bdce7569dbecf	0.0004251541891937384
89	0x3f3bdce7569dbecf	0.0004251541891937384
90	0x3f45fdc3d2c1d9df	0.000671120278197542
91	0x3f3bdce7569dbecf	0.0004251541891937384
92	0x3f3bdce7569dbecf	0.0004251541891937384
93	0x3f521232465f5f06	0.0011029711690663815
94	0x3f38267b807dd18e	0.00036850466903295346
95	0x3f4bf0d830c80749	0.000852685510438025
96	0x3f303d2c5fc8a51f	0.0002477868399944505
97	0x3f2cbda15ec8efa1	0.00021927447177627366
98	0x3f3bdce7569dbecf	0.0004251541891937384
99	0x3f3bdce7569dbecf	0.0004251541891937384
100	0x3f3bdce7569dbecf	0.0004251541891937384
101	0x3f48267b807dd18e	0.0007370093380659069
102	0x3f5691b23007fed1	0.001377510081624612
103	0x3f5aba699cefa3f5	0.0016313582780134149
104	0x3f5e50bf42f599de	0.0018503063000366786
105	0x3f3bdce7569dbecf	0.0004251541891937384
106	0x3f3bdce7569dbecf	0.0004251541891937384
107	0x3f45fdc3d2c1d9df	0.000671120278197542
108	0x3f45fdc3d2c1d9df	0.000671120278197542
109	0x3f3bdce7569dbecf	0.0004251541891937384
110	0x3f4477d97813020c	0.0006246387348696771
111	0x3f3bdce7569dbecf	0.0004251541891937384
112	0x3f35fdc3d2c1d9df	0.000335560139098771
113	0x3f35fdc3d2c1d9df	0.000335560139098771
114	0x3f31895ce542ad13	0.00026758687932711237
115	0x3f5c6b0da79f20f5	0.0017345078799611534
116	0x3f544447784c26ca	0.001236982149921339
117	0x3f4aabb5e8e4c1fd	0.0008139265280871496
118	0x3f3bdce7569dbecf	0.0004251541891937384
119	0x3f3bdce7569dbecf	0.0004251541891937384
120	0x3f38267b807dd18e	0.00036850466903295346
121	0x3f3bdce7569dbecf	0.0004251541891937384
122	0x3f38267b807dd18e	0.00036850466903295346
123	0x3f534b1eec3612d1	0.0011775781611912848
124	0x3f3bff88b419f6e1	0.00042721831787405183
125	0x3f38267b807dd18e	0.00036850466903295346
126	0x3f3477d97813020c	0.00031231936743483855
127	0x3f507e52de116367	0.001006680417296313
128	0x3f550e80c2b4b817	0.0012851960589830341
129	0x3f3bdce7569dbecf	0.0004251541891937384
130	0x3f31895ce542ad13	0.00026758687932711237
131	0x3f3bdce7569dbecf	0.0004251541891937384
132	0x3f3bdce7569dbecf	0.0004251541891937384
133	0x3f485bc28facf7ae	0.0007433605199833515
134	0x3f3bdce7569dbecf	0.0004251541891937384
135	0x3f38267b807dd18e	0.00036850466903295346
136	0x3f2bff88b419f6e1	0.00021360915893702591
137	0x3f3bdce7569dbecf	0.0004251541891937384
138	0x3f35fdc3d2c1d9df	0.000335560139098771
139	0x3f38267b807dd18e	0.00036850466903295346
140	0x3f48267b807dd18e	0.0007370093380659069
141	0x3f41ad282b6e347c	0.0005394407406683756
142	0x3f38267b807dd18e	0.00036850466903295346
143	0x3f38267b807dd18e	0.00036850466903295346
144	0x3f3e6dac7036ac19	0.0004643007270838675
145	0x3f38267b807dd18e	0.00036850466903295346
146	0x3f507e52de116367	0.001006680417296313
147	0x3f3bdce7569dbecf	0.0004251541891937384
148	0x3f334b1eec3612d1	0.0002943945402978212
149	0x3f334b1eec3612d1	0.0002943945402978212
150	0x3f3bdce7569dbecf	0.0004251541891937384
151	0x3f334b1eec3612d1	0.0002943945402978212
152	0x3f3477d97813020c	0.00031231936743483855
153	0x3f4eb3c6341c8310	0.0009369581023045154
154	0x3f45fdc3d2c1d9df	0.000671120278197542
155	0x3f334b1eec3612d1	0.0002943945402978212
156	0x3f4256c9f537b220	0.0005596624491182624
157	0x3f2a12a9e3c650f9	0.00019892047738479643
158	0x3f3bdce7569dbecf	0.0004251541891937384
159	0x3f3477d97813020c	0.00031231936743483855
160	0x3f39831ff4d10075	0.0003892853754372602
161	0x3f3cbda15ec8efa1	0.0004385489435525473
162	0x3f30d867022a2cdf	0.0002570392117966068
163	0x3f3bdce7569dbecf	0.0004251541891937384
164	0x3f38267b807dd18e	0.00036850466903295346
165	0x3f4c6c71be29bc8c	0.0008674197564014926
166	0x3f35fdc3d2c1d9df	0.000335560139098771
167	0x3f3bdce7569dbecf	0.0004251541891937384
168	0x3f41895ce542ad13	0.0005351737586542247
169	0x3f52778932f42e38	0.0011271323999747628
170	0x3f35fdc3d2c1d9df	0.000335560139098771
171	0x3f38267b807dd18e	0.00036850466903295346
172	0x3f533c48b00557a5	0.0011740407790816556
173	0x3f5477d97813020c	0.0012492774697393542
174	0x3f3bdce7569dbecf	0.0004251541891937384
175	0x3f3bdce7569dbecf	0.0004251541891937384
176	0x3f30d867022a2cdf	0.0002570392117966068
177	0x3f4477d97813020c	0.0006246387348696771
178	0x3f45fdc3d2c1d9df	0.000671120278197542
179	0x3f35fdc3d2c1d9df	0.000335560139098771
180	0x3f48267b807dd18e	0.0007370093380659069
181	0x3f48267b807dd18e	0.0007370093380659069
182	0x3f4477d97813020c	0.0006246387348696771
183	0x3f38267b807dd18e	0.00036850466903295346
184	0x3f3bdce7569dbecf	0.0004251541891937384
185	0x3f3bdce7569dbecf	0.0004251541891937384
186	0x3f303d2c5fc8a51f	0.0002477868399944505
187	0x3f48267b807dd18e	0.0007370093380659069
188	0x3f3bdce7569dbecf	0.0004251541891937384
189	0x3f35fdc3d2c1d9df	0.000335560139098771
190	0x3f3cbda15ec8efa1	0.0004385489435525473
191	0x3f3bdce7569dbecf	0.0004251541891937384
192	0x3f48267b807dd18e	0.0007370093380659069
193	0x3f3bdce7569dbecf	0.0004251541891937384
194	0x3f4477d97813020c	0.0006246387348696771
195	0x3f45fdc3d2c1d9df	0.000671120278197542
196	0x3f3256c9f537b220	0.0002798312245591312
197	0x3f3bdce7569dbecf	0.0004251541891937384
198	0x3f534b1eec3612d1	0.0011775781611912848
199	0x3f4d8c0eb7ed16c1	0.0009017059199798104
200	0x3f4a4e0b57e4039d	0.0008027606379813372
201	0x3f581de6a7439784	0.0014719727014891057
202	0x3f507e52de116367	0.001006680417296313
203	0x3f3bdce7569dbecf	0.0004251541891937384
204	0x3f3bdce7569dbecf	0.0004251541891937384
205	0x3f38267b807dd18e	0.00036850466903295346
206	0x3f3477d97813020c	0.00031231936743483855
207	0x3f3bdce7569dbecf	0.0004251541891937384
208	0x3f4e6dac7036ac19	0.000928601454167735
209	0x3f5a34f6a3c4bc09	0.0015995415297529478
210	0x3f3bdce7569dbecf	0.0004251541891937384
211	0x3f38267b807dd18e	0.00036850466903295346
212	0x3f38267b807dd18e	0.00036850466903295346
213	0x3f41895ce542ad13	0.0005351737586542247
214	0x3f4477d97813020c	0.0006246387348696771
215	0x3f3f6627e4b6e2c8	0.00047911142311422546
216	0x3f38267b807dd18e	0.00036850466903295346
217	0x3f3bdce7569dbecf	0.0004251541891937384
218	0x3f3bdce7569dbecf	0.0004251541891937384
219	0x3f2aabb5e8e4c1fd	0.0002034816320217874
220	0x3f434b1eec3612d1	0.0005887890805956424
221	0x3f3bdce7569dbecf	0.0004251541891937384
222	0x3f3bdce7569dbecf	0.0004251541891937384
223	0x3f4b822eefd38b2e	0.0008394936736773934
224	0x3f3bdce7569dbecf	0.0004251541891937384
225	0x3f3256c9f537b220	0.0002798312245591312
226	0x3f3bdce7569dbecf	0.0004251541891937384
227	0x3f3bdce7569dbecf	0.0004251541891937384
228	0x3f3bdce7569dbecf	0.0004251541891937384
229	0x3f3bdce7569dbecf	0.0004251541891937384
230	0x3f35fdc3d2c1d9df	0.000335560139098771
231	0x3f334b1eec3612d1	0.0002943945402978212
232	0x3f3bdce7569dbecf	0.0004251541891937384
233	0x3f5111b073f4f53a	0.001041815106716483
234	0x3f4d8c0eb7ed16c1	0.0009017059199798104
235	0x3f3bdce7569dbecf	0.0004251541891937384
236	0x3f48267b807dd18e	0.0007370093380659069
237	0x3f3bdce7569dbecf	0.0004251541891937384
238	0x3f3bdce7569dbecf	0.0004251541891937384
239	0x3f3bdce7569dbecf	0.0004251541891937384
240	0x3f5477d97813020c	0.0012492774697393542
241	0x3f303d2c5fc8a51f	0.0002477868399944505
242	0x3f2b4f80b987eec4	0.00020836302134329663
243	0x3f39831ff4d10075	0.0003892853754372602
244	0x3f46290b09f1d110	0.0006762794399848577
245	0x3f35fdc3d2c1d9df	0.000335560139098771
246	0x3f2cbda15ec8efa1	0.00021927447177627366
247	0x3f334b1eec3612d1	0.0002943945402978212
248	0x3f403d2c5fc8a51f	0.000495573679988901
249	0x3f48267b807dd18e	0.0007370093380659069
250	0x3f2bff88b419f6e1	0.00021360915893702591
251	0x3f3bdce7569dbecf	0.0004251541891937384
252	0x3f3bdce7569dbecf	0.0004251541891937384
253	0x3f503d2c5fc8a51f	0.000991147359977802
254	0x3f4e6dac7036ac19	0.000928601454167735
255	0x3f3bdce7569dbecf	0.0004251541891937384

diag f8 [4821]
0	0x40104998bc9177db	4.071871706370042
1	0x4011e2f547a415f2	4.471638793363569
2	0x4009f9f39f07b970	3.247046701834897
3	0x4014a2df64718710	5.159055299214529
4	0x4014a2df64718710	5.159055299214529
5	0x40104998bc9177db	4.071871706370042
6	0x4014a2df64718710	5.159055299214529
7	0x4014a2df64718710	5.159055299214529
8	0x4014a2df64718710	5.159055299214529
9	0x400c9429f324ddcf	3.572345637857985
10	0x4014a2df64718710	5.159055299214529
11	0x4014a2df64718710	5.159055299214529
12	0x4014a2df64718710	5.159055299214529
13	0x4014a2df64718710	5.159055299214529
14	0x40104998bc9177db	4.071871706370042
15	0x4014a2df64718710	5.159055299214529
16	0x4011e2f547a415f2	4.471638793363569
17	0x4014a2df64718710	5.159055299214529
18	0x4014a2df64718710	5.159055299214529
19	0x40104998bc9177db	4.071871706370042
20	0x4000481b483f8040	2.0352082867030106
21	0x4008f3d35d5172e2	3.11905548958599
22	0x40104998bc9177db	4.071871706370042
23	0x40104998bc9177db	4.071871706370042
24	0x4014a2df64718710	5.159055299214529
25	0x4014a2df64718710	5.159055299214529
26	0x40104998bc9177db	4.071871706370042
27	0x4011e2f547a415f2	4.471638793363569
28	0x40104998bc9177db	4.071871706370042
29	0x4011e2f547a415f2	4.471638793363569
30	0x4014a2df64718710	5.159055299214529
31	0x4011e2f547a415f2	4.471638793363569
32	0x4014a2df64718710	5.159055299214529
33	0x4014a2df64718710	5.159055299214529
34	0x4014a2df64718710	5.159055299214529
35	0x4014a2df64718710	5.159055299214529
36	0x4014a2df64718710	5.159055299214529
37	0x4014a2df64718710	5.159055299214529
38	0x4014a2df64718710	5.159055299214529
39	0x4014a2df64718710	5.159055299214529
40	0x4014a2df64718710	5.159055299214529
41	0x4011e2f547a415f2	4.471638793363569
42	0x4014a2df64718710	5.159055299214529
43	0x4014a2df64718710	5.159055299214529
44	0x4014a2df64718710	5.159055299214529
45	0x4014a2df64718710	5.159055299214529
46	0x4014a2df64718710	5.159055299214529
47	0x4014a2df64718710	5.159055299214529
48	0x4014a2df64718710	5.159055299214529
49	0x4014a2df64718710	5.159055299214529
50	0x4014a2df64718710	5.159055299214529
51	0x400e519fb167b77f	3.7898553714539385
52	0x4014a2df64718710	5.159055299214529
53	0x4014a2df64718710	5.159055299214529
54	0x4014a2df64718710	5.159055299214529
55	0x4014a2df64718710	5.159055299214529
56	0x4014a2df64718710	5.159055299214529
57	0x40104998bc9177db	4.071871706370042
58	0x4014a2df64718710	5.159055299214529
59	0x4014a2df64718710	5.159055299214529
60	0x4014a2df64718710	5.159055299214529
61	0x4014a2df64718710	5.159055299214529
62	0x4014a2df64718710	5.159055299214529
63	0x4014a2df64718710	5.159055299214529
64	0x4014a2df64718710	5.159055299214529
65	0x4014a2df64718710	5.159055299214529
66	0x4014a2df64718710	5.159055299214529
67	0x4014a2df64718710	5.159055299214529
68	0x4014a2df64718710	5.159055299214529
69	0x4014a2df64718710	5.159055299214529
70	0x4014a2df64718710	5.159055299214529
71	0x4014a2df64718710	5.159055299214529
72	0x4014a2df64718710	5.159055299214529
73	0x4011e2f547a415f2	4.471638793363569
74	0x4011e2f547a415f2	4.471638793363569
75	0x4014a2df64718710	5.159055299214529
76	0x40104998bc9177db	4.071871706370042
77	0x400c9429f324ddcf	3.572345637857985
78	0x4014a2df64718710	5.159055299214529
79	0x4014a2df64718710	5.159055299214529
80	0x4014a2df64718710	5.159055299214529
81	0x400b2a3e240980af	3.3956263366127
82	0x4011e2f547a415f2	4.471638793363569
83	0x4014a2df64718710	5.159055299214529
84	0x4014a2df64718710	5.159055299214529
85	0x4011e2f547a415f2	4.471638793363569
86	0x40104998bc9177db	4.071871706370042
87	0x4011e2f547a415f2	4.471638793363569
88	0x4014a2df64718710	5.159055299214529
89	0x4014a2df64718710	5.159055299214529
90	0x400c9429f324ddcf	3.572345637857985
91	0x4014a2df64718710	5.159055299214529
92	0x400e519fb167b77f	3.7898553714539385
93	0x4014a2df64718710	5.159055299214529
94	0x400c9429f324ddcf	3.572345637857985
95	0x4011e2f547a415f2	4.471638793363569
96	0x400c9429f324ddcf	3.572345637857985
97	0x4014a2df64718710	5.159055299214529
98	0x400e519fb167b77f	3.7898553714539385
99	0x4006894c858e2818	2.817040484810615
100	0x4014a2df64718710	5.159055299214529
101	0x4011e2f547a415f2	4.471638793363569
102	0x40104998bc9177db	4.071871706370042
103	0x4007415557c6048a	2.9069010598473755
104	0x4011e2f547a415f2	4.471638793363569
105	0x4011e2f547a415f2	4.471638793363569
106	0x400e519fb167b77f	3.7898553714539385
107	0x4014a2df64718710	5.159055299214529
108	0x4014a2df64718710	5.159055299214529
109	0x4014a2df64718710	5.159055299214529
110	0x40104998bc9177db	4.071871706370042
111	0x4014a2df64718710	5.159055299214529
112	0x4014a2df64718710	5.159055299214529
113	0x4014a2df64718710	5.159055299214529
114	0x4014a2df64718710	5.159055299214529
115	0x4009f9f39f07b970	3.247046701834897
116	0x4011e2f547a415f2	4.471638793363569
117	0x4011e2f547a415f2	4.471638793363569
118	0x4014a2df64718710	5.159055299214529
119	0x4011e2f547a415f2	4.471638793363569
120	0x4011e2f547a415f2	4.471638793363569
121	0x400c9429f324ddcf	3.572345637857985
122	0x4014a2df64718710	5.159055299214529
123	0x4014a2df64718710	5.159055299214529
124	0x40104998bc9177db	4.071871706370042
125	0x4014a2df64718710	5.159055299214529
126	0x4014a2df64718710	5.159055299214529
127	0x400e519fb167b77f	3.7898553714539385
128	0x4011e2f547a415f2	4.471638793363569
129	0x4014a2df64718710	5.159055299214529
130	0x4014a2df64718710	5.159055299214529
131	0x4014a2df64718710	5.159055299214529
132	0x400c9429f324ddcf	3.572345637857985
133	0x4014a2df64718710	5.159055299214529
134	0x4014a2df64718710	5.159055299214529
135	0x4014a2df64718710	5.159055299214529
136	0x4014a2df64718710	5.159055299214529
137	0x40104998bc9177db	4.071871706370042
138	0x4014a2df64718710	5.159055299214529
139	0x400e519fb167b77f	3.7898553714539385
140	0x4014a2df64718710	5.159055299214529
141	0x4014a2df64718710	5.159055299214529
142	0x4014a2df64718710	5.159055299214529
143	0x4014a2df64718710	5.159055299214529
144	0x4011e2f547a415f2	4.471638793363569
145	0x4011e2f547a415f2	4.471638793363569
146	0x4014a2df64718710	5.159055299214529
147	0x4011e2f547a415f2	4.471638793363569
148	0x4014a2df64718710	5.159055299214529
149	0x4000d758d4761a89	2.1051498983900427
150	0x4011e2f547a415f2	4.471638793363569
151	0x400b2a3e240980af	3.3956263366127
152	0x40104998bc9177db	4.071871706370042
153	0x4014a2df64718710	5.159055299214529
154	0x4011e2f547a415f2	4.471638793363569
155	0x400e519fb167b77f	3.7898553714539385
156	0x400b2a3e240980af	3.3956263366127
157	0x4014a2df64718710	5.159055299214529
158	0x3ff5b504a7600f51	1.3566938913436
159	0x4011e2f547a415f2	4.471638793363569
160	0x4014a2df64718710	5.159055299214529
161	0x4003c0d6102277cc	2.469158292819861
162	0x40080de3c75c44ee	3.006782109740576
163	0x4014a2df64718710	5.159055299214529
164	0x40104998bc9177db	4.071871706370042
165	0x4009f9f39f07b970	3.247046701834897
166	0x4014a2df64718710	5.159055299214529
167	0x4014a2df64718710	5.159055299214529
168	0x400e519fb167b77f	3.7898553714539385
169	0x4014a2df64718710	5.159055299214529
170	0x4011e2f547a415f2	4.471638793363569
171	0x4011e2f547a415f2	4.471638793363569
172	0x4014a2df64718710	5.159055299214529
173	0x4014a2df64718710	5.159055299214529
174	0x4014a2df64718710	5.159055299214529
175	0x4011e2f547a415f2	4.471638793363569
176	0x4014a2df64718710	5.159055299214529
177	0x3ffac233d4db7a14	1.6724127115954888
178	0x40104998bc9177db	4.071871706370042
179	0x40104998bc9177db	4.071871706370042
180	0x4014a2df64718710	5.159055299214529
181	0x4014a2df64718710	5.159055299214529
182	0x4014a2df64718710	5.159055299214529
183	0x4014a2df64718710	5.159055299214529
184	0x4014a2df64718710	5.159055299214529
185	0x4014a2df64718710	5.159055299214529
186	0x4014a2df64718710	5.159055299214529
187	0x400c9429f324ddcf	3.572345637857985
188	0x4011e2f547a415f2	4.471638793363569
189	0x4011e2f547a415f2	4.471638793363569
190	0x4011e2f547a415f2	4.471638793363569
191	0x4014a2df64718710	5.159055299214529
192	0x4014a2df64718710	5.159055299214529
193	0x4011e2f547a415f2	4.471638793363569
194	0x40104998bc9177db	4.071871706370042
195	0x4011e2f547a415f2	4.471638793363569
196	0x400b2a3e240980af	3.3956263366127
197	0x4014a2df64718710	5.159055299214529
198	0x40104998bc9177db	4.071871706370042
199	0x400b2a3e240980af	3.3956263366127
200	0x4014a2df64718710	5.159055299214529
201	0x4011e2f547a415f2	4.471638793363569
202	0x400c9429f324ddcf	3.572345637857985
203	0x4014a2df64718710	5.159055299214529
204	0x4011e2f547a415f2	4.471638793363569
205	0x400e519fb167b77f	3.7898553714539385
206	0x4014a2df64718710	5.159055299214529
207	0x4014a2df64718710	5.159055299214529
208	0x4014a2df64718710	5.159055299214529
209	0x40104998bc9177db	4.071871706370042
210	0x4006894c858e2818	2.817040484810615
211	0x400e519fb167b77f	3.7898553714539385
212	0x4011e2f547a415f2	4.471638793363569
213	0x4014a2df64718710	5.159055299214529
214	0x4011e2f547a415f2	4.471638793363569
215	0x4014a2df64718710	5.159055299214529
216	0x4014a2df64718710	5.159055299214529
217	0x4014a2df64718710	5.159055299214529
218	0x4014a2df64718710	5.159055299214529
219	0x4011e2f547a415f2	4.471638793363569
220	0x4014a2df64718710	5.159055299214529
221	0x4014a2df64718710	5.159055299214529
222	0x4014a2df64718710	5.159055299214529
223	0x4014a2df64718710	5.159055299214529
224	0x4014a2df64718710	5.159055299214529
225	0x4011e2f547a415f2	4.471638793363569
226	0x4014a2df64718710	5.159055299214529
227	0x4014a2df64718710	5.159055299214529
228	0x4014a2df64718710	5.159055299214529
229	0x4014a2df64718710	5.159055299214529
230	0x4009f9f39f07b970	3.247046701834897
231	0x40104998bc9177db	4.071871706370042
232	0x4009f9f39f07b970	3.247046701834897
233	0x4014a2df64718710	5.159055299214529
234	0x4014a2df64718710	5.159055299214529
235	0x4014a2df64718710	5.159055299214529
236	0x4011e2f547a415f2	4.471638793363569
237	0x4014a2df64718710	5.159055299214529
238	0x4014a2df64718710	5.159055299214529
239	0x4014a2df64718710	5.159055299214529
240	0x4014a2df64718710	5.159055299214529
241	0x4014a2df64718710	5.159055299214529
242	0x4014a2df64718710	5.159055299214529
243	0x4011e2f547a415f2	4.471638793363569
244	0x400e519fb167b77f	3.7898553714539385
245	0x400549501a74af0a	2.6607973162516645
246	0x4014a2df64718710	5.159055299214529
247	0x4014a2df64718710	5.159055299214529
248	0x4014a2df64718710	5.159055299214529
249	0x4011e2f547a415f2	4.471638793363569
250	0x4014a2df64718710	5.159055299214529
251	0x4011e2f547a415f2	4.471638793363569
252	0x4014a2df64718710	5.159055299214529
253	0x4011e2f547a415f2	4.471638793363569
254	0x4014a2df64718710	5.159055299214529
255	0x4014a2df64718710	5.159055299214529

indices i4 [8723]
0	0x000012d3	4819
1	0x000012d2	4818
2	0x000012cc	4812
3	0x000012c9	4809
4	0x000012c6	4806
5	0x000012c5	4805
6	0x000012c4	4804
7	0x000012c2	4802
8	0x000012c1	4801
9	0x000012bd	4797
10	0x000012bb	4795
11	0x000012ba	4794
12	0x000012b7	4791
13	0x000012b6	4790
14	0x000012b5	4789
15	0x000012b4	4788
16	0x000012ac	4780
17	0x000012a7	4775
18	0x000012a5	4773
19	0x000012a4	4772
20	0x000012a3	4771
21	0x000012a2	4770
22	0x000012a1	4769
23	0x00001299	4761
24	0x00001292	4754
25	0x0000128f	4751
26	0x0000128e	4750
27	0x0000128d	4749
28	0x0000128b	4747
29	0x0000128a	4746
30	0x00001289	4745
31	0x00001287	4743
32	0x00001286	4742
33	0x00001285	4741
34	0x00001284	4740
35	0x00001283	4739
36	0x00001280	4736
37	0x0000127b	4731
38	0x00001276	4726
39	0x00001275	4725
40	0x00001271	4721
41	0x0000126f	4719
42	0x00001266	4710
43	0x00001265	4709
44	0x00001264	4708
45	0x00001263	4707
46	0x00001262	4706
47	0x0000125b	4699
48	0x0000125a	4698
49	0x00001258	4696
50	0x00001252	4690
51	0x0000124e	4686
52	0x00001249	4681
53	0x00001247	4679
54	0x00001242	4674
55	0x00001241	4673
56	0x0000123d	4669
57	0x0000123c	4668
58	0x0000123b	4667
59	0x00001238	4664
60	0x00001236	4662
61	0x00001235	4661
62	0x00001234	4660
63	0x00001229	4649
64	0x00001222	4642
65	0x0000121f	4639
66	0x0000121c	4636
67	0x00001219	4633
68	0x00001206	4614
69	0x000011fc	4604
70	0x000011f9	4601
71	0x000011f8	4600
72	0x000011f5	4597
73	0x000011f3	4595
74	0x000011ef	4591
75	0x000011ee	4590
76	0x000011eb	4587
77	0x000011e8	4584
78	0x000011e7	4583
79	0x000011e4	4580
80	0x000011e3	4579
81	0x000011dc	4572
82	0x000011d5	4565
83	0x000011d1	4561
84	0x000011cb	4555
85	0x000011ca	4554
86	0x000011c6	4550
87	0x000011c5	4549
88	0x000011c2	4546
89	0x000011c1	4545
90	0x000011c0	4544
91	0x000011bc	4540
92	0x000011b9	4537
93	0x000011b8	4536
94	0x000011b6	4534
95	0x000011b3	4531
96	0x000011b1	4529
97	0x000011af	4527
98	0x000011ad	4525
99	0x000011a9	4521
100	0x000011a2	4514
101	0x000011a1	4513
102	0x0000119c	4508
103	0x0000119b	4507
104	0x0000119a	4506
105	0x00001198	4504
106	0x00001196	4502
107	0x00001194	4500
108	0x00001192	4498
109	0x0000118f	4495
110	0x00001187	4487
111	0x00001184	4484
112	0x00001180	4480
113	0x0000117f	4479
114	0x00001173	4467
115	0x00001172	4466
116	0x00001171	4465
117	0x0000116f	4463
118	0x00001169	4457
119	0x00001168	4456
120	0x00001161	4449
121	0x00001157	4439
122	0x00001156	4438
123	0x00001155	4437
124	0x00001151	4433
125	0x00001150	4432
126	0x0000114d	4429
127	0x0000114a	4426
128	0x00001149	4425
129	0x00001148	4424
130	0x00001146	4422
131	0x00001144	4420
132	0x00001142	4418
133	0x00001141	4417
134	0x0000113e	4414
135	0x0000113d	4413
136	0x0000113b	4411
137	0x0000113a	4410
138	0x00001139	4409
139	0x00001138	4408
140	0x00001137	4407
141	0x00001136	4406
142	0x00001135	4405
143	0x00001131	4401
144	0x00001130	4400
145	0x0000112c	4396
146	0x00001121	4385
147	0x00001120	4384
148	0x0000111f	4383
149	0x0000111c	4380
150	0x00001118	4376
151	0x00001114	4372
152	0x0000110b	4363
153	0x00001102	4354
154	0x000010ff	4351
155	0x000010fe	4350
156	0x000010f9	4345
157	0x000010f3	4339
158	0x000010f0	4336
159	0x000010ed	4333
160	0x000010e9	4329
161	0x000010e4	4324
162	0x000010e3	4323
163	0x000010e2	4322
164	0x000010d7	4311
165	0x000010d4	4308
166	0x000010d3	4307
167	0x000010d1	4305
168	0x000010d0	4304
169	0x000010cf	4303
170	0x000010c6	4294
171	0x000010c4	4292
172	0x000010c2	4290
173	0x000010c0	4288
174	0x000010bf	4287
175	0x000010be	4286
176	0x000010ba	4282
177	0x000010b3	4275
178	0x000010b2	4274
179	0x000010ad	4269
180	0x000010ac	4268
181	0x000010aa	4266
182	0x000010a9	4265
183	0x000010a8	4264
184	0x000010a7	4263
185	0x000010a3	4259
186	0x000010a2	4258
187	0x0000109c	4252
188	0x0000109a	4250
189	0x00001097	4247
190	0x0000108e	4238
191	0x0000108d	4237
192	0x0000108c	4236
193	0x0000108b	4235
194	0x00001087	4231
195	0x0000107e	4222
196	0x0000107b	4219
197	0x00001078	4216
198	0x00001077	4215
199	0x00001075	4213
200	0x00001074	4212
201	0x00001063	4195
202	0x00001062	4194
203	0x00001060	4192
204	0x0000105b	4187
205	0x0000105a	4186
206	0x00001059	4185
207	0x00001054	4180
208	0x00001051	4177
209	0x00001050	4176
210	0x0000104d	4173
211	0x0000104c	4172
212	0x0000104a	4170
213	0x00001048	4168
214	0x00001046	4166
215	0x00001045	4165
216	0x00001044	4164
217	0x00001040	4160
218	0x0000103f	4159
219	0x0000103e	4158
220	0x0000103c	4156
221	0x0000103a	4154
222	0x00001039	4153
223	0x00001034	4148
224	0x00001033	4147
225	0x0000102e	4142
226	0x0000102b	4139
227	0x0000102a	4138
228	0x00001029	4137
229	0x00001027	4135
230	0x00001026	4134
231	0x00001024	4132
232	0x00001021	4129
233	0x0000101d	4125
234	0x0000101b	4123
235	0x0000101a	4122
236	0x00001017	4119
237	0x00001012	4114
238	0x0000100f	4111
239	0x0000100d	4109
240	0x0000100c	4108
241	0x00001008	4104
242	0x00001006	4102
243	0x00001005	4101
244	0x00001004	4100
245	0x00001003	4099
246	0x00001001	4097
247	0x00000ffb	4091
248	0x00000ff5	4085
249	0x00000fef	4079
250	0x00000feb	4075
251	0x00000fe1	4065
252	0x00000fdb	4059
253	0x00000fd7	4055
254	0x00000fd5	4053
255	0x00000fd2	4050

indptr i4 [104]
0	0x00000000	0
1	0x000006c4	1732
2	0x00000835	2101
3	0x0000095a	2394
4	0x000009e5	2533
5	0x00000ab1	2737
6	0x00000b15	2837
7	0x00000bbe	3006
8	0x00000c5f	3167
9	0x00000cc5	3269
10	0x00000d6e	3438
11	0x00000dd5	3541
12	0x00000e5c	3676
13	0x00000eb8	3768
14	0x00000f1f	3871
15	0x00000f67	3943
16	0x00000fbb	4027
17	0x00000ff2	4082
18	0x0000100f	4111
19	0x00001075	4213
20	0x000010c4	4292
21	0x00001103	4355
22	0x00001166	4454
23	0x00001196	4502
24	0x000011df	4575
25	0x0000121a	4634
26	0x0000127e	4734
27	0x000012d2	4818
28	0x00001321	4897
29	0x00001354	4948
30	0x000013c3	5059
31	0x00001428	5160
32	0x0000146a	5226
33	0x000014bb	5307
34	0x000014fb	5371
35	0x0000154b	5451
36	0x000015a2	5538
37	0x000015ec	5612
38	0x00001628	5672
39	0x0000164f	5711
40	0x000016a1	5793
41	0x000016d3	5843
42	0x00001706	5894
43	0x00001749	5961
44	0x00001771	6001
45	0x0000179b	6043
46	0x000017d4	6100
47	0x00001813	6163
48	0x00001851	6225
49	0x00001893	6291
50	0x000018cd	6349
51	0x000018ff	6399
52	0x0000191e	6430
53	0x00001940	6464
54	0x0000197a	6522
55	0x000019b1	6577
56	0x000019e6	6630
57	0x00001a26	6694
58	0x00001a4e	6734
59	0x00001a80	6784
60	0x00001abe	6846
61	0x00001b05	6917
62	0x00001b2c	6956
63	0x00001b6a	7018
64	0x00001ba0	7072
65	0x00001bbc	7100
66	0x00001bf2	7154
67	0x00001c2b	7211
68	0x00001c6d	7277
69	0x00001cac	7340
70	0x00001ce9	7401
71	0x00001d25	7461
72	0x00001d47	7495
73	0x00001d71	7537
74	0x00001da4	7588
75	0x00001dbb	7611
76	0x00001dd7	7639
77	0x00001e0b	7691
78	0x00001e33	7731
79	0x00001e62	7778
80	0x00001e87	7815
81	0x00001ebd	7869
82	0x00001ecb	7883
83	0x00001f00	7936
84	0x00001f34	7988
85	0x00001f63	8035
86	0x00001f8a	8074
87	0x00001fb6	8118
88	0x00001fd9	8153
89	0x00002007	8199
90	0x00002032	8242
91	0x0000205a	8282
92	0x00002091	8337
93	0x000020bc	8380
94	0x000020d8	8408
95	0x0000210d	8461
96	0x00002124	8484
97	0x00002152	8530
98	0x00002164	8548
99	0x00002186	8582
100	0x000021aa	8618
101	0x000021bf	8639
102	0x000021e3	8675
103	0x00002213	8723
