results/models/topic_model/ctfidf.safetensors (safetensors, 88908 bytes, 4 tensors)

data f8 [5341]
00000000: cde5 b44b 4b5d 5f3f e571 1a9d c0ce 653f
00000010: 2278 1621 a057 523f 4daf 986e f22e 633f
00000020: 8642 237c ab13 4d3f 8642 237c ab13 5d3f
00000030: 2278 1621 a057 523f 9dfd ff5b 620b 5c3f
00000040: 8642 237c ab13 4d3f 9e6e 07e8 08e0 4f3f
00000050: 9e6e 07e8 08e0 5f3f 2278 1621 a057 523f
00000060: 8642 237c ab13 5d3f 89c1 7d4c ced4 413f
00000070: b65a e74d 7a6f 593f 2278 1621 a057 523f
00000080: ad81 b038 3ee9 6b3f fa90 3106 70b4 633f
00000090: 970c f854 0f67 623f 8642 237c ab13 4d3f
000000a0: e571 1a9d c0ce 653f 5caa 601c 16ad 793f
000000b0: 61ed c03b 111a 5b3f 8642 237c ab13 5d3f
000000c0: 2278 1621 a057 523f 2278 1621 a057 523f
000000d0: 09b2 d0ec 8c53 643f 9e6e 07e8 08e0 5f3f
000000e0: 8642 237c ab13 5d3f 0c9c aeda 2b66 663f
000000f0: 8d08 3f22 1b41 723f 2278 1621 a057 523f
00000100: 9e6e 07e8 08e0 4f3f 2278 1621 a057 523f
00000110: 9e6e 07e8 08e0 5f3f 2278 1621 a057 523f
00000120: 2278 1621 a057 523f 2278 1621 a057 523f
00000130: 670b 54d8 ce56 583f e571 1a9d c0ce 653f
00000140: 2278 1621 a057 523f 09b2 d0ec 8c53 643f
00000150: 926d e3f5 e4f4 493f 89c1 7d4c ced4 513f
00000160: 16cd 3310 0271 413f 0c9c aeda 2b66 563f
00000170: 8d08 3f22 1b41 623f 2278 1621 a057 523f
00000180: 9e6e 07e8 08e0 5f3f 3108 03ca c177 653f
00000190: c6a9 dbaa ccd5 403f 9e6e 07e8 08e0 5f3f
000001a0: 8d08 3f22 1b41 623f 9e6e 07e8 08e0 4f3f
000001b0: 7887 0c2c c50c 7e3f 0c9c aeda 2b66 563f
000001c0: 2278 1621 a057 523f 2278 1621 a057 523f
000001d0: 9e6e 07e8 08e0 5f3f 2278 1621 a057 523f
000001e0: 6794 cbe8 ed93 593f 5187 063c 6c9c 453f
000001f0: 2278 1621 a057 523f 6794 cbe8 ed93 593f
00000200: 670b 54d8 ce56 483f 9e6e 07e8 08e0 4f3f
00000210: 4259 c9d4 3987 4e3f 4ea2 bc72 35bf 5a3f
00000220: 2278 1621 a057 523f 2278 1621 a057 523f
00000230: e571 1a9d c0ce 653f 57a6 bdef 3e47 443f
00000240: b813 0441 dd34 6c3f 9e6e 07e8 08e0 5f3f
00000250: 61ed c03b 111a 4b3f f31d 8f2b 16c5 5c3f
00000260: 9e6e 07e8 08e0 4f3f 61ed c03b 111a 6b3f
00000270: 9e6e 07e8 08e0 4f3f 57a6 bdef 3e47 443f
00000280: 8642 237c ab13 4d3f 61ed c03b 111a 6b3f
00000290: 8642 237c ab13 4d3f 2278 1621 a057 523f
000002a0: a1b3 4d18 8329 5a3f 61ed c03b 111a 6b3f
000002b0: 8642 237c ab13 5d3f 7456 6c7c 0f4c 473f
000002c0: f31d 8f2b 16c5 6c3f 2629 084b 8703 6b3f
000002d0: 2278 1621 a057 523f 670b 54d8 ce56 483f
000002e0: 2278 1621 a057 523f 9e6e 07e8 08e0 5f3f
000002f0: 2278 1621 a057 523f 6794 cbe8 ed93 493f
00000300: 9e6e 07e8 08e0 4f3f 16cd 3310 0271 513f
00000310: 6f64 25d8 0e9d 593f 2278 1621 a057 523f
00000320: 9e6e 07e8 08e0 5f3f e571 1a9d c0ce 653f
00000330: 9e6e 07e8 08e0 5f3f 9e6e 07e8 08e0 4f3f
00000340: 9e6e 07e8 08e0 5f3f 9e6e 07e8 08e0 4f3f
00000350: 0c9c aeda 2b66 663f 2278 1621 a057 523f
00000360: 2278 1621 a057 523f 2278 1621 a057 523f
00000370: 0c9c aeda 2b66 663f 2278 1621 a057 523f
00000380: 43d6 415f ff9f 693f 2278 1621 a057 523f
00000390: 2278 1621 a057 523f 8642 237c ab13 4d3f
000003a0: 4a98 c33a 5f13 413f 2278 1621 a057 523f
000003b0: 2278 1621 a057 523f 9e6e 07e8 08e0 5f3f
000003c0: 2278 1621 a057 523f 6794 cbe8 ed93 493f
000003d0: 7456 6c7c 0f4c 473f 9e6e 07e8 08e0 5f3f
000003e0: 61ed c03b 111a 4b3f 9e6e 07e8 08e0 5f3f
000003f0: 2da0 7c7a fd9c 703f a2be b4c7 0e2e 433f
00000400: 8642 237c ab13 4d3f 6794 cbe8 ed93 593f
00000410: 16cd 3310 0271 513f 9e6e 07e8 08e0 4f3f
00000420: 09b2 d0ec 8c53 643f 09f5 02e4 a0cc 603f
00000430: 61ed c03b 111a 5b3f 8d08 3f22 1b41 623f
00000440: e571 1a9d c0ce 653f 2278 1621 a057 523f
00000450: 6794 cbe8 ed93 493f a236 2d25 39ad 713f
00000460: 8642 237c ab13 5d3f 9e6e 07e8 08e0 5f3f
00000470: 03df 6f04 d7f4 5e3f acee 5d3a 4062 723f
00000480: 6794 cbe8 ed93 493f de43 23dd dce8 543f
00000490: 2278 1621 a057 523f 09b2 d0ec 8c53 643f
000004a0: 9e6e 07e8 08e0 4f3f e571 1a9d c0ce 653f
000004b0: 9e6e 07e8 08e0 4f3f e571 1a9d c0ce 653f
000004c0: 9e6e 07e8 08e0 4f3f 9e6e 07e8 08e0 4f3f
000004d0: 61ed c03b 111a 5b3f 2278 1621 a057 523f
000004e0: 8642 237c ab13 5d3f ec49 6f52 0168 503f
000004f0: 8642 237c ab13 5d3f 6794 cbe8 ed93 493f
00000500: 2278 1621 a057 523f cde5 b44b 4b5d 5f3f
00000510: ce97 684e ec65 383f 9e6e 07e8 08e0 4f3f
00000520: 2278 1621 a057 523f 4b6c b8b3 b1b5 573f
00000530: 8d08 3f22 1b41 623f 0f43 5ad1 b6ff 6b3f
00000540: 61ed c03b 111a 4b3f 2278 1621 a057 523f
00000550: 9e6e 07e8 08e0 4f3f e571 1a9d c0ce 653f
00000560: 2278 1621 a057 523f 2278 1621 a057 523f
00000570: 09b2 d0ec 8c53 643f 992c 5ea1 bb4e 373f
00000580: 0983 ebd9 c8df 583f ec49 6f52 0168 403f
00000590: 4bee a179 92f9 673f 6794 cbe8 ed93 593f
000005a0: 0983 ebd9 c8df 683f 9d51 ca81 d525 583f
000005b0: 6794 cbe8 ed93 493f e571 1a9d c0ce 653f
000005c0: 8642 237c ab13 4d3f 3fca 97f7 5876 623f
000005d0: a6cb de8c 8d62 743f fa90 3106 70b4 433f
000005e0: 18d7 0732 dd05 4e3f 2278 1621 a057 523f
000005f0: 57a6 bdef 3e47 543f 9e6e 07e8 08e0 5f3f
00000600: 2278 1621 a057 523f 6794 cbe8 ed93 493f
00000610: 7ce5 042d 5135 703f 13a9 aa92 41b2 523f
00000620: d784 6238 a994 6a3f 2278 1621 a057 523f
00000630: e571 1a9d c0ce 653f 09b2 d0ec 8c53 643f
00000640: 54bc dcf5 903f 423f 2278 1621 a057 523f
00000650: 2278 1621 a057 523f 670b 54d8 ce56 483f
00000660: 6590 a0ef ec9c 5f3f 2278 1621 a057 523f
00000670: 9e6e 07e8 08e0 5f3f 2278 1621 a057 523f
00000680: 2278 1621 a057 523f 2278 1621 a057 523f
00000690: 1070 78c6 8126 653f 8642 237c ab13 5d3f
000006a0: 13a9 aa92 41b2 423f 2278 1621 a057 523f
000006b0: 2278 1621 a057 523f 2278 1621 a057 523f
000006c0: 2278 1621 a057 523f 2278 1621 a057 523f
000006d0: 670b 54d8 ce56 483f 61ed c03b 111a 4b3f
000006e0: 2278 1621 a057 523f 0c9c aeda 2b66 563f
000006f0: 0c9c aeda 2b66 463f 8642 237c ab13 4d3f
00000700: 8d08 3f22 1b41 623f 2278 1621 a057 523f
00000710: 09b2 d0ec 8c53 643f 8642 237c ab13 5d3f
00000720: de43 23dd dce8 543f 2278 1621 a057 523f
00000730: 61ed c03b 111a 4b3f 61ed c03b 111a 6b3f
00000740: 8642 237c ab13 5d3f 6794 cbe8 ed93 593f
00000750: 2278 1621 a057 523f 2278 1621 a057 523f
00000760: f31d 8f2b 16c5 6c3f 4daf 986e f22e 633f
00000770: 57a6 bdef 3e47 443f 13a9 aa92 41b2 423f
00000780: 9e6e 07e8 08e0 5f3f 2278 1621 a057 523f
00000790: 2278 1621 a057 523f 1c80 3ce1 66a4 703f
000007a0: 89c1 7d4c ced4 513f 9e6e 07e8 08e0 4f3f
000007b0: 8642 237c ab13 4d3f 57a6 bdef 3e47 443f
000007c0: 9e6e 07e8 08e0 4f3f b00f a31f 61de 313f
000007d0: 2278 1621 a057 523f 2278 1621 a057 523f
000007e0: 2278 1621 a057 523f 2278 1621 a057 523f
000007f0: 61ed c03b 111a 5b3f 6590 a0ef ec9c 5f3f
0.0019143328962186624 0.002662063788035451 0.0011195243608663826 0.0023417220115983573 0.0008873545960118169 0.0017747091920236337 0.0011195243608663826 0.0017116985836763473
0.0008873545960118169 0.0009727519500830233 0.0019455039001660466 0.0011195243608663826 0.0017747091920236337 0.0005441672628716958 0.0015524572732964876 0.0011195243608663826
0.0034071173918308246 0.0024053752872977814 0.0022464084102025816 0.0008873545960118169 0.002662063788035451 0.006268583651073269 0.00165416415167282 0.0017747091920236337
0.0011195243608663826 0.0011195243608663826 0.00248124622750923 0.0019455039001660466 0.0017747091920236337 0.0027342659499995977 0.0044566211617526165 0.0011195243608663826
0.0009727519500830233 0.0011195243608663826 0.0019455039001660466 0.0011195243608663826 0.0011195243608663826 0.0011195243608663826 0.0014855403872508722 0.002662063788035451
0.0011195243608663826 0.00248124622750923 0.0007921331378172739 0.0010883345257433916 0.0005322704386387124 0.0013671329749997988 0.0022283105808763083 0.0011195243608663826
0.0019455039001660466 0.002620581144669586 0.0005137681343659265 0.0019455039001660466 0.0022283105808763083 0.0009727519500830233 0.007336397364982143 0.0013671329749997988
0.0011195243608663826 0.0011195243608663826 0.0019455039001660466 0.0011195243608663826 0.0015611480077322383 0.0006595161903997037 0.0011195243608663826 0.0015611480077322383
0.0007427701936254361 0.0009727519500830233 0.0009316475275891539 0.0016325017886150875 0.0011195243608663826 0.0011195243608663826 0.002662063788035451 0.0006188447291439286
0.0034431763998576635 0.0019455039001660466 0.00082708207583641 0.0017559734826465528 0.0009727519500830233 0.00330832830334564 0.0009727519500830233 0.0006188447291439286
0.0008873545960118169 0.00330832830334564 0.0008873545960118169 0.0011195243608663826 0.0015968113159161373 0.00330832830334564 0.0017747091920236337 0.0007109714141246407
0.0035119469652931056 0.0032975809519985187 0.0011195243608663826 0.0007427701936254361 0.0011195243608663826 0.0019455039001660466 0.0011195243608663826 0.0007805740038661191
0.0009727519500830233 0.0010645408772774249 0.001563324448019789 0.0011195243608663826 0.0019455039001660466 0.002662063788035451 0.0019455039001660466 0.0009727519500830233
0.0019455039001660466 0.0009727519500830233 0.0027342659499995977 0.0011195243608663826 0.0011195243608663826 0.0011195243608663826 0.0027342659499995977 0.0011195243608663826
0.003128050588254523 0.0011195243608663826 0.0011195243608663826 0.0008873545960118169 0.0005211081493399297 0.0011195243608663826 0.0011195243608663826 0.0019455039001660466
0.0011195243608663826 0.0007805740038661191 0.0007109714141246407 0.0019455039001660466 0.00082708207583641 0.0019455039001660466 0.004055967474222694 0.0005853244942155176
0.0008873545960118169 0.0015611480077322383 0.0010645408772774249 0.0009727519500830233 0.00248124622750923 0.0020506994624996983 0.00165416415167282 0.0022283105808763083
0.002662063788035451 0.0011195243608663826 0.0007805740038661191 0.004315589164276242 0.0017747091920236337 0.0019455039001660466 0.0018894290712960233 0.004488230600937431
0.0007805740038661191 0.0012762219308124416 0.0011195243608663826 0.00248124622750923 0.0009727519500830233 0.002662063788035451 0.0009727519500830233 0.002662063788035451
0.0009727519500830233 0.0009727519500830233 0.00165416415167282 0.0011195243608663826 0.0017747091920236337 0.0010013592634449077 0.0017747091920236337 0.0007805740038661191
0.0011195243608663826 0.0019143328962186624 0.00037228602596639244 0.0009727519500830233 0.0011195243608663826 0.001447127854482105 0.0022283105808763083 0.003417832437499497
0.00082708207583641 0.0011195243608663826 0.0009727519500830233 0.002662063788035451 0.0011195243608663826 0.0011195243608663826 0.00248124622750923 0.00035564499682356473
0.0015181981504427974 0.0005006796317224538 0.002926622471077588 0.0015611480077322383 0.003036396300885595 0.0014738640813095401 0.0007805740038661191 0.002662063788035451
0.0008873545960118169 0.0022536981239167637 0.004976799898872486 0.0006013438218244454 0.0009162263923474271 0.0011195243608663826 0.0012376894582878572 0.0019455039001660466
0.0011195243608663826 0.0007805740038661191 0.003957097142398221 0.0011411323891175648 0.0032447152216979846 0.0011195243608663826 0.002662063788035451 0.00248124622750923
0.0005568940939378966 0.0011195243608663826 0.0011195243608663826 0.0007427701936254361 0.0019295038059761402 0.0011195243608663826 0.0019455039001660466 0.0011195243608663826
0.0011195243608663826 0.0011195243608663826 0.0025818380997986237 0.0017747091920236337 0.0005705661945587824 0.0011195243608663826 0.0011195243608663826 0.0011195243608663826
0.0011195243608663826 0.0011195243608663826 0.0007427701936254361 0.00082708207583641 0.0011195243608663826 0.0013671329749997988 0.0006835664874998994 0.0008873545960118169
0.0022283105808763083 0.0011195243608663826 0.00248124622750923 0.0017747091920236337 0.0012762219308124416 0.0011195243608663826 0.00082708207583641 0.00330832830334564
0.0017747091920236337 0.0015611480077322383 0.0011195243608663826 0.0011195243608663826 0.0035119469652931056 0.0023417220115983573 0.0006188447291439286 0.0005705661945587824
0.0019455039001660466 0.0011195243608663826 0.0011195243608663826 0.004063035845121046 0.0010883345257433916 0.0009727519500830233 0.0008873545960118169 0.0006188447291439286
0.0009727519500830233 0.00027265425854871694 0.0011195243608663826 0.0011195243608663826 0.0011195243608663826 0.0011195243608663826 0.00165416415167282 0.0019295038059761402

diag f8 [3022]
00000000: 2104 dde0 f3fc 1440 73ab 3b3f b2a2 1040
00000010: 2104 dde0 f3fc 1440 73ab 3b3f b2a2 1040
00000020: 2104 dde0 f3fc 1440 2104 dde0 f3fc 1440
00000030: 2104 dde0 f3fc 1440 7c29 4d97 8b3c 1240
00000040: 2104 dde0 f3fc 1440 2104 dde0 f3fc 1440
00000050: 2104 dde0 f3fc 1440 7c29 4d97 8b3c 1240
00000060: 2104 dde0 f3fc 1440 2104 dde0 f3fc 1440
00000070: 2104 dde0 f3fc 1440 2104 dde0 f3fc 1440
00000080: 5b01 aa7f 1034 0740 2104 dde0 f3fc 1440
00000090: 2104 dde0 f3fc 1440 7c29 4d97 8b3c 1240
000000a0: 7c29 4d97 8b3c 1240 73ab 3b3f b2a2 1040
000000b0: 7c29 4d97 8b3c 1240 234a 96d6 5aa8 0a40
000000c0: 2104 dde0 f3fc 1440 2104 dde0 f3fc 1440
000000d0: 2104 dde0 f3fc 1440 73ab 3b3f b2a2 1040
000000e0: 2104 dde0 f3fc 1440 2104 dde0 f3fc 1440
000000f0: 2104 dde0 f3fc 1440 2104 dde0 f3fc 1440
00000100: 7c29 4d97 8b3c 1240 2104 dde0 f3fc 1440
00000110: 2104 dde0 f3fc 1440 2104 dde0 f3fc 1440
00000120: 2104 dde0 f3fc 1440 2104 dde0 f3fc 1440
00000130: 2104 dde0 f3fc 1440 2104 dde0 f3fc 1440
00000140: 7c29 4d97 8b3c 1240 2104 dde0 f3fc 1440
00000150: 7c29 4d97 8b3c 1240 2104 dde0 f3fc 1440
00000160: 73ab 3b3f b2a2 1040 73ab 3b3f b2a2 1040
00000170: 2104 dde0 f3fc 1440 0f9c cc11 4ea1 0940
00000180: cc7f d5d0 db02 0f40 cc7f d5d0 db02 0f40
00000190: 234a 96d6 5aa8 0a40 7c29 4d97 8b3c 1240
000001a0: 7c29 4d97 8b3c 1240 7c29 4d97 8b3c 1240
000001b0: 2104 dde0 f3fc 1440 73ab 3b3f b2a2 1040
000001c0: 2104 dde0 f3fc 1440 2104 dde0 f3fc 1440
000001d0: 2104 dde0 f3fc 1440 2104 dde0 f3fc 1440
000001e0: 7c29 4d97 8b3c 1240 2104 dde0 f3fc 1440
000001f0: 2104 dde0 f3fc 1440 73ab 3b3f b2a2 1040
00000200: 5b01 aa7f 1034 0740 7c29 4d97 8b3c 1240
00000210: cc7f d5d0 db02 0f40 2104 dde0 f3fc 1440
00000220: 2104 dde0 f3fc 1440 cc7f d5d0 db02 0f40
00000230: 2104 dde0 f3fc 1440 c8c5 3d77 74ba 0840
00000240: 2104 dde0 f3fc 1440 2104 dde0 f3fc 1440
00000250: 2104 dde0 f3fc 1440 f745 7a77 feec 0740
00000260: 2104 dde0 f3fc 1440 2104 dde0 f3fc 1440
00000270: 2104 dde0 f3fc 1440 2104 dde0 f3fc 1440
00000280: 2104 dde0 f3fc 1440 2104 dde0 f3fc 1440
00000290: 2104 dde0 f3fc 1440 7c29 4d97 8b3c 1240
000002a0: 73ab 3b3f b2a2 1040 5b01 aa7f 1034 0740
000002b0: 73ab 3b3f b2a2 1040 2104 dde0 f3fc 1440
000002c0: a36f 0f0c a864 0540 7c29 4d97 8b3c 1240
000002d0: 2104 dde0 f3fc 1440 2104 dde0 f3fc 1440
000002e0: 0f9c cc11 4ea1 0940 2104 dde0 f3fc 1440
000002f0: 2104 dde0 f3fc 1440 ff8f 4fdd 422d 0140
00000300: 2104 dde0 f3fc 1440 f838 8b42 4367 0440
00000310: 7c29 4d97 8b3c 1240 7c29 4d97 8b3c 1240
00000320: 2104 dde0 f3fc 1440 7c29 4d97 8b3c 1240
00000330: 73ab 3b3f b2a2 1040 f745 7a77 feec 0740
00000340: cc7f d5d0 db02 0f40 2104 dde0 f3fc 1440
00000350: 2104 dde0 f3fc 1440 2104 dde0 f3fc 1440
00000360: 7c29 4d97 8b3c 1240 2104 dde0 f3fc 1440
00000370: 2104 dde0 f3fc 1440 2104 dde0 f3fc 1440
00000380: 2104 dde0 f3fc 1440 2104 dde0 f3fc 1440
00000390: 2104 dde0 f3fc 1440 2104 dde0 f3fc 1440
000003a0: 7c29 4d97 8b3c 1240 2104 dde0 f3fc 1440
000003b0: 0f9c cc11 4ea1 0940 2104 dde0 f3fc 1440
000003c0: 2104 dde0 f3fc 1440 2104 dde0 f3fc 1440
000003d0: 2104 dde0 f3fc 1440 2104 dde0 f3fc 1440
000003e0: 2104 dde0 f3fc 1440 2104 dde0 f3fc 1440
000003f0: d25f 92d5 7144 0d40 73ab 3b3f b2a2 1040
00000400: 2104 dde0 f3fc 1440 2104 dde0 f3fc 1440
00000410: 2104 dde0 f3fc 1440 234a 96d6 5aa8 0a40
00000420: 7c29 4d97 8b3c 1240 2104 dde0 f3fc 1440
00000430: 2104 dde0 f3fc 1440 234a 96d6 5aa8 0a40
00000440: 2104 dde0 f3fc 1440 2104 dde0 f3fc 1440
00000450: 2104 dde0 f3fc 1440 7c29 4d97 8b3c 1240
00000460: 2104 dde0 f3fc 1440 2104 dde0 f3fc 1440
00000470: 2104 dde0 f3fc 1440 2104 dde0 f3fc 1440
00000480: 2104 dde0 f3fc 1440 7c29 4d97 8b3c 1240
00000490: 2104 dde0 f3fc 1440 2104 dde0 f3fc 1440
000004a0: 2104 dde0 f3fc 1440 2104 dde0 f3fc 1440
000004b0: 2104 dde0 f3fc 1440 2104 dde0 f3fc 1440
000004c0: 2104 dde0 f3fc 1440 2104 dde0 f3fc 1440
000004d0: 6fc4 6967 94d9 0b40 2104 dde0 f3fc 1440
000004e0: 73ab 3b3f b2a2 1040 2104 dde0 f3fc 1440
000004f0: cc7f d5d0 db02 0f40 2104 dde0 f3fc 1440
00000500: cc7f d5d0 db02 0f40 2104 dde0 f3fc 1440
00000510: 7c29 4d97 8b3c 1240 2104 dde0 f3fc 1440
00000520: 2104 dde0 f3fc 1440 2104 dde0 f3fc 1440
00000530: 7c29 4d97 8b3c 1240 cc7f d5d0 db02 0f40
00000540: 2104 dde0 f3fc 1440 c8c5 3d77 74ba 0840
00000550: 2104 dde0 f3fc 1440 0f9c cc11 4ea1 0940
00000560: 73ab 3b3f b2a2 1040 2104 dde0 f3fc 1440
00000570: 2104 dde0 f3fc 1440 2104 dde0 f3fc 1440
00000580: 6305 d362 148c 0640 2104 dde0 f3fc 1440
00000590: 73ab 3b3f b2a2 1040 73ab 3b3f b2a2 1040
000005a0: 2104 dde0 f3fc 1440 73ab 3b3f b2a2 1040
000005b0: 7c29 4d97 8b3c 1240 f838 8b42 4367 0440
000005c0: cc7f d5d0 db02 0f40 73ab 3b3f b2a2 1040
000005d0: 7c29 4d97 8b3c 1240 6fc4 6967 94d9 0b40
000005e0: 2104 dde0 f3fc 1440 7c29 4d97 8b3c 1240
000005f0: cc7f d5d0 db02 0f40 2104 dde0 f3fc 1440
00000600: 7c29 4d97 8b3c 1240 73ab 3b3f b2a2 1040
00000610: 2104 dde0 f3fc 1440 5b01 aa7f 1034 0740
00000620: 7c29 4d97 8b3c 1240 7c29 4d97 8b3c 1240
00000630: 2104 dde0 f3fc 1440 8c76 c4e2 50f2 0540
00000640: cc7f d5d0 db02 0f40 cc7f d5d0 db02 0f40
00000650: 7c29 4d97 8b3c 1240 234a 96d6 5aa8 0a40
00000660: d25f 92d5 7144 0d40 2104 dde0 f3fc 1440
00000670: 2104 dde0 f3fc 1440 234a 96d6 5aa8 0a40
00000680: 2104 dde0 f3fc 1440 2104 dde0 f3fc 1440
00000690: 2104 dde0 f3fc 1440 2104 dde0 f3fc 1440
000006a0: 73ab 3b3f b2a2 1040 2104 dde0 f3fc 1440
000006b0: a051 81ef a546 fb3f 7c29 4d97 8b3c 1240
000006c0: 2104 dde0 f3fc 1440 7c29 4d97 8b3c 1240
000006d0: 5ac3 31d8 0a99 fc3f f838 8b42 4367 0440
000006e0: 6fc4 6967 94d9 0b40 cc7f d5d0 db02 0f40
000006f0: 7c29 4d97 8b3c 1240 7c29 4d97 8b3c 1240
00000700: 7c29 4d97 8b3c 1240 cc7f d5d0 db02 0f40
00000710: d8d5 8045 6ce1 0440 a303 8485 65b3 fd3f
00000720: cc7f d5d0 db02 0f40 2104 dde0 f3fc 1440
00000730: 6305 d362 148c 0640 2104 dde0 f3fc 1440
00000740: 7c29 4d97 8b3c 1240 73ab 3b3f b2a2 1040
00000750: 2104 dde0 f3fc 1440 2104 dde0 f3fc 1440
00000760: 7c29 4d97 8b3c 1240 2104 dde0 f3fc 1440
00000770: 2104 dde0 f3fc 1440 2104 dde0 f3fc 1440
00000780: 73ab 3b3f b2a2 1040 2104 dde0 f3fc 1440
00000790: 2104 dde0 f3fc 1440 2104 dde0 f3fc 1440
000007a0: 7c29 4d97 8b3c 1240 7c29 4d97 8b3c 1240
000007b0: 2104 dde0 f3fc 1440 7c29 4d97 8b3c 1240
000007c0: 2104 dde0 f3fc 1440 06df c3d4 af5a ff3f
000007d0: 2104 dde0 f3fc 1440 2104 dde0 f3fc 1440
000007e0: 2104 dde0 f3fc 1440 ff8f 4fdd 422d 0140
000007f0: d25f 92d5 7144 0d40 1413 2724 1125 0340
5.247024072160486 4.1588830833596715 5.247024072160486 4.1588830833596715 5.247024072160486 5.247024072160486 5.247024072160486 4.5591262474866845
5.247024072160486 5.247024072160486 5.247024072160486 4.5591262474866845 5.247024072160486 5.247024072160486 5.247024072160486 5.247024072160486
2.900422093749666 5.247024072160486 5.247024072160486 4.5591262474866845 4.5591262474866845 4.1588830833596715 4.5591262474866845 3.332204510175204
5.247024072160486 5.247024072160486 5.247024072160486 4.1588830833596715 5.247024072160486 5.247024072160486 5.247024072160486 5.247024072160486
4.5591262474866845 5.247024072160486 5.247024072160486 5.247024072160486 5.247024072160486 5.247024072160486 5.247024072160486 5.247024072160486
4.5591262474866845 5.247024072160486 4.5591262474866845 5.247024072160486 4.1588830833596715 4.1588830833596715 5.247024072160486 3.2037621870581527
3.876395827784995 3.876395827784995 3.332204510175204 4.5591262474866845 4.5591262474866845 4.5591262474866845 5.247024072160486 4.1588830833596715
5.247024072160486 5.247024072160486 5.247024072160486 5.247024072160486 4.5591262474866845 5.247024072160486 5.247024072160486 4.1588830833596715
2.900422093749666 4.5591262474866845 3.876395827784995 5.247024072160486 5.247024072160486 3.876395827784995 5.247024072160486 3.091042453358316
5.247024072160486 5.247024072160486 5.247024072160486 2.990719731730447 5.247024072160486 5.247024072160486 5.247024072160486 5.247024072160486
5.247024072160486 5.247024072160486 5.247024072160486 4.5591262474866845 4.1588830833596715 2.900422093749666 4.1588830833596715 5.247024072160486
2.6741486494265287 4.5591262474866845 5.247024072160486 5.247024072160486 3.2037621870581527 5.247024072160486 5.247024072160486 2.1471001901536506
5.247024072160486 2.550421256898627 4.5591262474866845 4.5591262474866845 5.247024072160486 4.5591262474866845 4.1588830833596715 2.990719731730447
3.876395827784995 5.247024072160486 5.247024072160486 5.247024072160486 4.5591262474866845 5.247024072160486 5.247024072160486 5.247024072160486
5.247024072160486 5.247024072160486 5.247024072160486 5.247024072160486 4.5591262474866845 5.247024072160486 3.2037621870581527 5.247024072160486
5.247024072160486 5.247024072160486 5.247024072160486 5.247024072160486 5.247024072160486 5.247024072160486 3.6584202466292277 4.1588830833596715
5.247024072160486 5.247024072160486 5.247024072160486 3.332204510175204 4.5591262474866845 5.247024072160486 5.247024072160486 3.332204510175204
5.247024072160486 5.247024072160486 5.247024072160486 4.5591262474866845 5.247024072160486 5.247024072160486 5.247024072160486 5.247024072160486
5.247024072160486 4.5591262474866845 5.247024072160486 5.247024072160486 5.247024072160486 5.247024072160486 5.247024072160486 5.247024072160486
5.247024072160486 5.247024072160486 3.481240089335692 5.247024072160486 4.1588830833596715 5.247024072160486 3.876395827784995 5.247024072160486
3.876395827784995 5.247024072160486 4.5591262474866845 5.247024072160486 5.247024072160486 5.247024072160486 4.5591262474866845 3.876395827784995
5.247024072160486 3.091042453358316 5.247024072160486 3.2037621870581527 4.1588830833596715 5.247024072160486 5.247024072160486 5.247024072160486
2.8183982582710754 5.247024072160486 4.1588830833596715 4.1588830833596715 5.247024072160486 4.1588830833596715 4.5591262474866845 2.550421256898627
3.876395827784995 4.1588830833596715 4.5591262474866845 3.481240089335692 5.247024072160486 4.5591262474866845 3.876395827784995 5.247024072160486
4.5591262474866845 4.1588830833596715 5.247024072160486 2.900422093749666 4.5591262474866845 4.5591262474866845 5.247024072160486 2.743318339939668
3.876395827784995 3.876395827784995 4.5591262474866845 3.332204510175204 3.6584202466292277 5.247024072160486 5.247024072160486 3.332204510175204
5.247024072160486 5.247024072160486 5.247024072160486 5.247024072160486 4.1588830833596715 5.247024072160486 1.7047480922384253 4.5591262474866845
5.247024072160486 4.5591262474866845 1.7873638577550168 2.550421256898627 3.481240089335692 3.876395827784995 4.5591262474866845 4.5591262474866845
4.5591262474866845 3.876395827784995 2.6100697927420065 1.8562979903656263 3.876395827784995 5.247024072160486 2.8183982582710754 5.247024072160486
4.5591262474866845 4.1588830833596715 5.247024072160486 5.247024072160486 4.5591262474866845 5.247024072160486 5.247024072160486 5.247024072160486
4.1588830833596715 5.247024072160486 5.247024072160486 5.247024072160486 4.5591262474866845 4.5591262474866845 5.247024072160486 4.5591262474866845
5.247024072160486 1.9596403418672153 5.247024072160486 5.247024072160486 5.247024072160486 2.1471001901536506 3.6584202466292277 2.3930991005348776

indices i4 [5341]
00000000: c60b 0000 c30b 0000 bb0b 0000 b80b 0000
00000010: b10b 0000 ad0b 0000 ac0b 0000 a70b 0000
00000020: a40b 0000 a20b 0000 9c0b 0000 8b0b 0000
00000030: 880b 0000 820b 0000 7b0b 0000 7a0b 0000
00000040: 760b 0000 740b 0000 730b 0000 6b0b 0000
00000050: 690b 0000 660b 0000 640b 0000 610b 0000
00000060: 5f0b 0000 5d0b 0000 5a0b 0000 570b 0000
00000070: 560b 0000 540b 0000 530b 0000 520b 0000
00000080: 460b 0000 430b 0000 420b 0000 380b 0000
00000090: 360b 0000 330b 0000 2e0b 0000 2c0b 0000
000000a0: 260b 0000 250b 0000 240b 0000 1e0b 0000
000000b0: 1b0b 0000 1a0b 0000 180b 0000 170b 0000
000000c0: 140b 0000 0c0b 0000 0b0b 0000 0a0b 0000
000000d0: 080b 0000 020b 0000 f80a 0000 e40a 0000
000000e0: e30a 0000 da0a 0000 d10a 0000 c60a 0000
000000f0: c40a 0000 c10a 0000 bf0a 0000 ba0a 0000
00000100: b70a 0000 b00a 0000 a70a 0000 a60a 0000
00000110: a30a 0000 a10a 0000 9c0a 0000 990a 0000
00000120: 8f0a 0000 8a0a 0000 890a 0000 810a 0000
00000130: 7c0a 0000 760a 0000 6c0a 0000 6b0a 0000
00000140: 690a 0000 670a 0000 620a 0000 600a 0000
00000150: 530a 0000 4c0a 0000 480a 0000 370a 0000
00000160: 310a 0000 2a0a 0000 270a 0000 240a 0000
00000170: 230a 0000 220a 0000 210a 0000 1d0a 0000
00000180: 1c0a 0000 110a 0000 100a 0000 0d0a 0000
00000190: 090a 0000 030a 0000 000a 0000 f509 0000
000001a0: f309 0000 ef09 0000 ed09 0000 eb09 0000
000001b0: ea09 0000 e209 0000 df09 0000 da09 0000
000001c0: d909 0000 d709 0000 c909 0000 c209 0000
000001d0: c109 0000 bc09 0000 ba09 0000 aa09 0000
000001e0: a009 0000 8f09 0000 8e09 0000 8b09 0000
000001f0: 8509 0000 8409 0000 7c09 0000 7a09 0000
00000200: 7809 0000 7709 0000 6e09 0000 6c09 0000
00000210: 6b09 0000 6809 0000 6509 0000 6109 0000
00000220: 5d09 0000 5809 0000 5709 0000 4709 0000
00000230: 4009 0000 3c09 0000 3909 0000 3809 0000
00000240: 3509 0000 3009 0000 1f09 0000 0209 0000
00000250: ff08 0000 f908 0000 f808 0000 f608 0000
00000260: f308 0000 f208 0000 eb08 0000 e408 0000
00000270: df08 0000 de08 0000 dc08 0000 db08 0000
00000280: d608 0000 cc08 0000 cb08 0000 c808 0000
00000290: c208 0000 c108 0000 c008 0000 bd08 0000
000002a0: bc08 0000 b208 0000 ae08 0000 ad08 0000
000002b0: ab08 0000 a508 0000 a408 0000 a008 0000
000002c0: 9f08 0000 9808 0000 9108 0000 8c08 0000
000002d0: 7d08 0000 7b08 0000 7908 0000 7708 0000
000002e0: 6e08 0000 6d08 0000 6808 0000 6508 0000
000002f0: 4d08 0000 4908 0000 4708 0000 4408 0000
00000300: 3708 0000 3608 0000 2808 0000 2708 0000
00000310: 1708 0000 0608 0000 0308 0000 0208 0000
00000320: 0108 0000 0008 0000 fe07 0000 fc07 0000
00000330: f807 0000 f707 0000 f507 0000 f407 0000
00000340: f207 0000 ee07 0000 e807 0000 e707 0000
00000350: e507 0000 d807 0000 d507 0000 d307 0000
00000360: c707 0000 c407 0000 c007 0000 bf07 0000
00000370: ba07 0000 b707 0000 ac07 0000 ab07 0000
00000380: a607 0000 a107 0000 9e07 0000 9d07 0000
00000390: 9607 0000 9507 0000 8407 0000 7d07 0000
000003a0: 7207 0000 7007 0000 6e07 0000 6c07 0000
000003b0: 6a07 0000 5f07 0000 5c07 0000 5507 0000
000003c0: 4a07 0000 4907 0000 4507 0000 3f07 0000
000003d0: 3c07 0000 3707 0000 3607 0000 3407 0000
000003e0: 3107 0000 2e07 0000 2d07 0000 2707 0000
000003f0: 1f07 0000 1d07 0000 1c07 0000 1b07 0000
3014 3011 3003 3000 2993 2989 2988 2983
2980 2978 2972 2955 2952 2946 2939 2938
2934 2932 2931 2923 2921 2918 2916 2913
2911 2909 2906 2903 2902 2900 2899 2898
2886 2883 2882 2872 2870 2867 2862 2860
2854 2853 2852 2846 2843 2842 2840 2839
2836 2828 2827 2826 2824 2818 2808 2788
2787 2778 2769 2758 2756 2753 2751 2746
2743 2736 2727 2726 2723 2721 2716 2713
2703 2698 2697 2689 2684 2678 2668 2667
2665 2663 2658 2656 2643 2636 2632 2615
2609 2602 2599 2596 2595 2594 2593 2589
2588 2577 2576 2573 2569 2563 2560 2549
2547 2543 2541 2539 2538 2530 2527 2522
2521 2519 2505 2498 2497 2492 2490 2474
2464 2447 2446 2443 2437 2436 2428 2426
2424 2423 2414 2412 2411 2408 2405 2401
2397 2392 2391 2375 2368 2364 2361 2360
2357 2352 2335 2306 2303 2297 2296 2294
2291 2290 2283 2276 2271 2270 2268 2267
2262 2252 2251 2248 2242 2241 2240 2237
2236 2226 2222 2221 2219 2213 2212 2208
2207 2200 2193 2188 2173 2171 2169 2167
2158 2157 2152 2149 2125 2121 2119 2116
2103 2102 2088 2087 2071 2054 2051 2050
2049 2048 2046 2044 2040 2039 2037 2036
2034 2030 2024 2023 2021 2008 2005 2003
1991 1988 1984 1983 1978 1975 1964 1963
1958 1953 1950 1949 1942 1941 1924 1917
1906 1904 1902 1900 1898 1887 1884 1877
1866 1865 1861 1855 1852 1847 1846 1844
1841 1838 1837 1831 1823 1821 1820 1819

indptr i4 [72]
00000000: 0000 0000 8402 0000 fc06 0000 6107 0000
00000010: c807 0000 3a08 0000 9808 0000 0509 0000
00000020: 4709 0000 a509 0000 020a 0000 800a 0000
00000030: a90a 0000 120b 0000 630b 0000 b70b 0000
00000040: e30b 0000 300c 0000 8e0c 0000 d00c 0000
00000050: 0b0d 0000 510d 0000 770d 0000 940d 0000
00000060: bd0d 0000 f00d 0000 120e 0000 3c0e 0000
00000070: 8d0e 0000 ec0e 0000 270f 0000 590f 0000
00000080: 840f 0000 b50f 0000 f20f 0000 2110 0000
00000090: 6110 0000 7510 0000 ad10 0000 c210 0000
000000a0: f510 0000 3911 0000 7c11 0000 a611 0000
000000b0: be11 0000 e711 0000 0912 0000 3312 0000
000000c0: 5712 0000 7912 0000 9912 0000 bc12 0000
000000d0: dc12 0000 f212 0000 1813 0000 3313 0000
000000e0: 5413 0000 7613 0000 9b13 0000 ba13 0000
000000f0: c413 0000 e913 0000 0414 0000 2514 0000
00000100: 2914 0000 4114 0000 5c14 0000 7114 0000
00000110: 8214 0000 9814 0000 b014 0000 dd14 0000
0 644 1788 1889 1992 2106 2200 2309
2375 2469 2562 2688 2729 2834 2915 2999
3043 3120 3214 3280 3339 3409 3447 3476
3517 3568 3602 3644 3725 3820 3879 3929
3972 4021 4082 4129 4193 4213 4269 4290
4341 4409 4476 4518 4542 4583 4617 4659
4695 4729 4761 4796 4828 4850 4888 4915
4948 4982 5019 5050 5060 5097 5124 5157
5161 5185 5212 5233 5250 5272 5296 5341
