results/models/topic_model/topic_embeddings.safetensors (safetensors, 290904 bytes, 1 tensors)

topic_embeddings f4 [71, 1024]
0	0x3c518324	0.012787614
1	0x3b90aced	0.0044151456
2	0xbc05b8c9	-0.008161732
3	0x3cb61813	0.022228276
4	0xbcda45a4	-0.026644535
5	0xbc82494c	-0.015904091
6	0xbc7ce253	-0.015434819
7	0x3c079c61	0.00827703
8	0xbb185de9	-0.0023249334
9	0x3c2b6a6c	0.010462385
10	0x3cbade15	0.022810975
11	0x3c006f3f	0.007839023
12	0x3c8d3f5b	0.017242124
13	0xbc8fa56b	-0.017534932
14	0xbd1027a5	-0.035194058
15	0xbc22078d	-0.009889496
16	0xbb3d16d6	-0.0028852723
17	0xbc12352a	-0.008923808
18	0xbbc3e93c	-0.0059787314
19	0x3c4c6d4a	0.012477228
20	0x3bdef344	0.006803902
21	0xbb6193d5	-0.003442039
22	0xbced81d3	-0.02899257
23	0xbcceb18f	-0.02523115
24	0xbcb9712a	-0.022636969
25	0x3c5e9128	0.013584413
26	0xbc75be92	-0.014999049
27	0x3c07216f	0.008247717
28	0x3d82b419	0.06382007
29	0x3d30325b	0.043016773
30	0xbc769755	-0.015050729
31	0xbccb6a39	-0.024830924
32	0x3c5a23b9	0.013314181
33	0xbd0a8b7b	-0.033824425
34	0xbc27bd4b	-0.010238002
35	0xbc7518a3	-0.014959487
36	0x3ca81d5c	0.020521812
37	0xbc3c45ff	-0.011491298
38	0xbcb626b1	-0.022235246
39	0xbd2d148f	-0.042255934
40	0xbbf07b18	-0.0073388927
41	0xbc468587	-0.012116796
42	0x3cd9bb31	0.026578518
43	0xbcfda571	-0.030962678
44	0xbd128caa	-0.03577868
45	0x3b4c4e70	0.0031174682
46	0xbcbdfb2c	-0.023191057
47	0xbcdabbfe	-0.02670097
48	0x3c71a87c	0.014749642
49	0xbc723480	-0.014783025
50	0xbc101db6	-0.008796146
51	0x3d063aa1	0.032770757
52	0x3cd8eadc	0.026479177
53	0xbc51c3f2	-0.012803065
54	0xbb999f42	-0.0046881745
55	0xbc297d56	-0.010344824
56	0xbc1ee4bc	-0.009698089
57	0x3b1cdef9	0.0023936613
58	0xbbefb9e5	-0.0073158615
59	0xbb041b4a	-0.0020157867
60	0x3cf612e8	0.030038312
61	0x399e76f9	0.0003022475
62	0x3d032cff	0.032025333
63	0xbd0d95df	-0.034566756
64	0x3c6c9fe7	0.014442421
65	0x3cb26efd	0.021781439
66	0x3aa8a685	0.001286701
67	0xbc151a9e	-0.009100584
68	0xbb6c7d13	-0.0036085292
69	0xbb5370d1	-0.0032263289
70	0xbb0f5ec5	-0.0021876555
71	0xbba9fbcf	-0.0051874886
72	0xbc68b73c	-0.014203843
73	0xbcc49c14	-0.024000205
74	0x3a8aaf61	0.0010580831
75	0x3bb219e4	0.0054352153
76	0x3adf7135	0.0017047288
77	0xbba8b761	-0.0051488136
78	0xbc1c1708	-0.009526975
79	0x3b99197c	0.0046722274
80	0x3c666816	0.014062902
81	0x3d0ad7e9	0.033897314
82	0xbbdf534e	-0.0068153506
83	0x3bcf0f54	0.006318966
84	0xbce0344a	-0.027368683
85	0x3a34b0f8	0.00068928255
86	0x3c5acced	0.013354522
87	0x3cdab8c5	0.026699433
88	0x3b36b6e4	0.0027880007
89	0x3c73cd01	0.01488042
90	0x3af56eb5	0.001872501
91	0x3d0269fd	0.03183936
92	0xbc379418	-0.011204742
93	0x3a15963c	0.00057062856
94	0x3c8467eb	0.016162833
95	0x3cdb129e	0.026742276
96	0xbc427b9a	-0.011870289
97	0x3cbd9ad4	0.023145117
98	0xbb6e8094	-0.0036392557
99	0x3c51ed3a	0.012812907
100	0x3c0af409	0.008481034
101	0x3ccc7d20	0.024962008
102	0xbc02d161	-0.00798449
103	0x3d13bb47	0.036067273
104	0xbd07a677	-0.033117738
105	0x3a901c67	0.0010994793
106	0x3cf8f8a6	0.030392002
107	0xbc98fac7	-0.018674267
108	0x3ce5d145	0.028053889
109	0xbd40fe8b	-0.04711775
110	0x3b1ac14d	0.0023613751
111	0xbb94d45f	-0.004541918
112	0xbb3779b7	-0.0027996132
113	0xba8decd0	-0.0010828022
114	0x393de55d	0.00018109889
115	0x3cde4e5b	0.027136972
116	0x3a1db9a6	0.00060167385
117	0xbbb3cfe5	-0.0054874294
118	0xbcfc4995	-0.030796805
119	0x3cc87692	0.024470601
120	0xbbf81516	-0.007570873
121	0xbbafe0b5	-0.0053673633
122	0x3bef5b85	0.007304611
123	0x3837481c	4.3697757e-05
124	0xbc0881ed	-0.008331758
125	0xbcaa5c5d	-0.020795995
126	0xbb1e7c16	-0.0024182848
127	0x3c8b5016	0.017005961
128	0xbce803a5	-0.02832205
129	0xbca300d6	-0.01989786
130	0xbbc1f2c1	-0.005918831
131	0xbcb70573	-0.022341466
132	0x3c56baaa	0.013106028
133	0x3c3a5ac8	0.011374183
134	0x3ca93bc1	0.020658376
135	0x3c1c738d	0.009549034
136	0x3c04b9ff	0.008100986
137	0x3d103d44	0.035214677
138	0x3cab3746	0.02090038
139	0xbc3cad05	-0.01151586
140	0x3c8ab0c1	0.016929986
141	0x3c124afc	0.0089290105
142	0x3c7fde9a	0.015617037
143	0x3da2cb3b	0.079489194
144	0xbc1c7ffb	-0.009551997
145	0x3d0046fc	0.031317696
146	0xbaa6584a	-0.0012691107
147	0x3c8e09f6	0.017338734
148	0xbcd279f1	-0.025692912
149	0x3d067035	0.032821853
150	0xbcf537b7	-0.029933793
151	0x3c1f6bf2	0.009730326
152	0x3c1817f9	0.009283059
153	0x3c50c19b	0.012741472
154	0x3bef87b9	0.0073098806
155	0xbc178dc6	-0.00925011
156	0x3c99b889	0.018764751
157	0x3c706264	0.014671896
158	0x3bbd8e83	0.005784811
159	0x3ce02a7e	0.027364012
160	0xbc5bce7e	-0.013415931
161	0x3ca8f99f	0.020626841
162	0xbb9f7f09	-0.0048674387
163	0x3c34306e	0.010997875
164	0xbcf1092d	-0.02942332
165	0x3c115a65	0.008871649
166	0xbc854aaa	-0.016270954
167	0xbbf3972a	-0.0074337916
168	0xbce7da8e	-0.028302457
169	0xbc9f494b	-0.019444128
170	0x3d1d0615	0.03833588
171	0xbb1d6e43	-0.002402202
172	0xbd06d4e2	-0.032917865
173	0xba7e2f14	-0.0009696346
174	0x3c98660d	0.01860335
175	0x3cca4c1b	0.024694493
176	0x3cf207ee	0.029544797
177	0x3c42de3d	0.011893806
178	0x3cee8044	0.029113896
179	0x3cc31e38	0.02381812
180	0xbca36097	-0.019943519
181	0xba47ef6b	-0.00076269236
182	0x3ca00ad9	0.019536423
183	0x3d1ec9cb	0.038766664
184	0x3b59e37f	0.003324717
185	0x3b221619	0.002473241
186	0xbbf449b0	-0.0074550733
187	0x3c5a2a17	0.013315699
188	0xbc52b299	-0.012859964
189	0xbc60ba2d	-0.013716263
190	0x395b62b3	0.00020922236
191	0x3bb4e490	0.005520411
192	0xbc498b0b	-0.012301217
193	0x3c78d43c	0.015187319
194	0x3a5ab497	0.000834295
195	0x3c1ccecf	0.009570791
196	0xbcb9ed9b	-0.022696307
197	0x3c77fb60	0.015135616
198	0x3c549d9c	0.01297703
199	0xbcaaf2f1	-0.020867797
200	0xbc6da347	-0.01450426
201	0x3c92fbcb	0.01794233
202	0xbc8bf758	-0.017085716
203	0x3c255ba3	0.010092649
204	0xbcc78042	-0.02435315
205	0xbc8ef66b	-0.017451486
206	0x3d13be3f	0.036070105
207	0x3d6923d2	0.056918927
208	0xbcab5856	-0.020916145
209	0x3cbc31f3	0.022973036
210	0x3cf632c2	0.0300535
211	0x3c880dab	0.01660808
212	0xbbd57007	-0.006513599
213	0xbce7a2a3	-0.028275793
214	0x3c4716a4	0.012151394
215	0xbbc751a6	-0.0060827313
216	0xbc891818	-0.016735122
217	0x3d02142c	0.03175752
218	0xbaf2807d	-0.0018501427
219	0xbbfab5bc	-0.007651059
220	0x3cbcb7f3	0.023036933
221	0x3c352955	0.011057218
222	0x3c902f9b	0.017600825
223	0x3cbffbac	0.023435436
224	0x3bf092f9	0.0073417393
225	0xbca0b3d3	-0.019616997
226	0xbb346862	-0.0027528037
227	0x3d18726d	0.0372185
228	0xbc995fae	-0.018722381
229	0xbca86081	-0.02055383
230	0xbc534162	-0.012894006
231	0x3ca3a41b	0.019975713
232	0x3b548df3	0.003243324
233	0x3d275a1b	0.040857416
234	0x3cb08990	0.02154997
235	0x391dffd5	0.00015067992
236	0x3cfa5755	0.030559221
237	0x3caa4799	0.020786094
238	0x3c148513	0.0090649305
239	0x3b3e4fd5	0.0029039283
240	0x3c041a60	0.008062929
241	0x3b2ce094	0.0026378976
242	0x3d1001cb	0.03515796
243	0x3cc37f5c	0.02386444
244	0x3c8811c7	0.01661004
245	0x3cbb5733	0.022868728
246	0xbbc942e0	-0.0061420053
247	0xbc87e3db	-0.016588142
248	0x3bcde07f	0.0062828655
249	0x3cbf0cf6	0.02332161
250	0xbc5cf060	-0.013485044
251	0x3c606baf	0.013697549
252	0x3c867608	0.016413704
253	0x3caab1ca	0.02083673
254	0xbd10e41a	-0.035373785
255	0x3bc1a919	0.0059100506
