results/models/topic_model/topic_embeddings.safetensors (safetensors, 421984 bytes, 1 tensors)

topic_embeddings f4 [103, 1024]
00000000: b571 bb3b 8e76 3abb 1204 3abc 7467 a73c
00000010: 0f47 eabc 3a32 c9bc f7df 3fbc fa92 113c
00000020: a35d 233c bba2 773c 0181 893c b911 e23b
00000030: a5a1 883c 9d22 37bc 087e f4bc 775b 12bc
00000040: 1132 0fbc 823b 2cbc 2b1c e9bb ef75 043c
00000050: 588d 543c 38b3 0fbb 5c7a f2bc 22f7 04bd
00000060: d78e 4cbc fb96 693c 866c 1ebc 6144 123b
00000070: 9802 773d 6196 1e3d e2cf 89bc a6f7 9abc
00000080: 5e5c 8e3c f5d2 04bd cdc8 cabb 1542 8bbc
00000090: 1542 6d3c 9d77 9dbc 8050 81bc 09b5 fcbc
000000a0: d15c d5ba 4821 80bc 3f50 f03c c657 c5bc
000000b0: 63a9 eabc 0cbc 8538 c6c5 88bc 3c4d 8bbc
000000c0: 5332 143c b5da bcbc bf10 b4bb a934 c03c
000000d0: f934 a73c e707 4abc 2c52 2439 e0ed 64bb
000000e0: db30 60bc 097d 0abb cfbe 86bb 55b8 05ba
000000f0: 9675 ba3c 9416 d33b 4d4d c53c 559b 31bd
00000100: a6e9 843c c95a 873c 7cef f4ba 730c 41bc
00000110: c6e9 b8bb 05d5 37bc e947 63bb 41b7 d3bb
00000120: 7a90 87bc f229 b8bc c5fa e7bb f247 0a3c
00000130: c755 32bc 4ac6 88bb 7872 2bba 767e 523c
00000140: a6c5 603c 10d9 ea3c 2996 08bc f42e 5a3b
00000150: a474 14bd eb0b a93b 1fc7 483c aab0 d93c
00000160: 8c17 853b 9d1a 2a3c 0528 3b3b 568c 123d
00000170: be44 95bc 800b 843a 170d 903c f815 d83c
00000180: d909 82bc 4fe7 9e3c c596 79bb dc9d 183c
00000190: 47b8 233c 8e5d bf3c d2d7 ceba 5d5a 113d
000001a0: 4778 ddbc fefb 143c 1dd4 b93c a70f 83bc
000001b0: fbc5 293c 1086 0ebd d1e7 bebb 8b93 203b
000001c0: a5e2 3c3c 5c4c 4abb bc4e c13a 6ff1 e43c
000001d0: f2bf cfb9 eb0b 1c3b 9ed7 03bd d73b fb3c
000001e0: 94ae 253c b626 e93b 744b 593c 5781 2fbc
000001f0: 7d04 aabb 3168 a6bc bad7 e13b 823d cd3c
00000200: a51a d1bc 234a 6dbc 6a78 56bb 33b1 e0bc
00000210: ea76 253c a7c1 e43b 13ca 883c 27ec 883b
00000220: 80ad 193c e9cd 143d 096a 863c 711b 4ebc
00000230: e2e3 2d3c af29 433c 68c1 f53a 18c3 903d
00000240: 2cc4 33bc 2e15 e83c 07ee adb9 8966 ba3b
00000250: d9be d6bc f23a e03c 9f2a c9bc 311a 3a3c
00000260: ad1e 333c d1bb 8d3c 40ec 0c3c 0285 bdbc
00000270: f03a 623c 4af0 483c 1097 563b f2c6 f53c
00000280: 0e29 9abc 2006 a23c 6240 21bc 7480 9e3c
00000290: e6cd cdbc bb30 293c 1541 b8bb e6f7 eaba
000002a0: 8a85 8dbc 4074 8fbc a0f2 033d fad4 f73b
000002b0: ba37 dabc 31a8 093b 870b c73c 4d92 ee3c
000002c0: 7e73 e43c 6cd3 1e3c c06f 0a3d 6cc3 a03c
000002d0: 39ac 55bc b9f1 28ba b663 803c 4402 2a3d
000002e0: 350d d83b e372 80bb d30f 2e3b 73a4 c0bb
000002f0: 3048 1fbc 93da 8ebc 913e c23b e5a6 043c
00000300: 2b3c 8bbc 451a 9f3c 91f1 4e3b 9235 df3a
00000310: 685a 9bbc e5ab ca3a 872c 453c 4bed e9bc
00000320: 5286 9bbc f0ba dc3c e330 b3bc f5f0 873c
00000330: 0ae2 7fbc 55b5 abbc 001c 133d 3797 4e3d
00000340: c93a 85bc 9983 3e3c dd23 e23c d04d 723c
00000350: 9c5e efbb 2338 d8bc f66d 713c 19ce c9bb
00000360: a946 8dbc 9bec ce3c cbb4 c7ba 5e46 4dbc
00000370: 8175 503c 69ea 593c f619 413c 69f4 a93c
00000380: 4e7d d339 882a 27bc 3923 6cbb 740d 133d
00000390: adc2 24bc 4e6b 6dbc c990 2fbc 7d1b ab3c
000003a0: 16a9 133c 1b96 2f3d 7d79 a83c c290 65ba
000003b0: ef52 cf3c e4f0 c03c a38b e53b c697 cf3b
000003c0: fc30 3c3b 0e00 6b3c 626e 0c3d 08b8 913c
000003d0: 6d8e 2b3c 1268 c53c 1f69 b43a 15be 75bc
000003e0: 1c1b 6abb 90ac ca3c d209 fdbb b218 b93c
000003f0: b8a4 443c 782c bd3c 8ce4 ffbc 6f81 f83b
0.005720342 -0.0028452012 -0.0113535095 0.020435072 -0.028598337 -0.024560083 -0.011711112 0.00888514
0.009971055 0.015114482 0.016785147 0.0068990854 0.01667864 -0.011177686 -0.029845253 -0.00893294
-0.008739964 -0.010512235 -0.0071139536 0.008084758 0.012973152 -0.002192689 -0.029599361 -0.032462247
-0.012485228 0.014257188 -0.009669429 0.002231859 0.060305208 0.03871763 -0.016822759 -0.018916916
0.017378028 -0.032427747 -0.006188488 -0.016999284 0.014481087 -0.019222075 -0.015785456 -0.030848043
-0.0016278272 -0.01564087 0.02933514 -0.024089705 -0.028645223 6.376961e-05 -0.016695868 -0.017004602
0.009045201 -0.023053506 -0.0054951604 0.02346261 0.020411002 -0.012330986 0.0001567087 -0.0034931824
-0.013683523 -0.0021131656 -0.0041121016 -0.0005101015 0.022761147 0.0064419005 0.024084711 -0.043361027
0.016224694 0.016522782 -0.0018687095 -0.011782753 -0.0056431023 -0.011220221 -0.0034680313 -0.0064610546
-0.016548384 -0.022480939 -0.0070794546 0.008440005 -0.010884709 -0.0041740285 -0.00065401895 0.012847533
0.013718998 0.028667957 -0.008336582 0.0033292146 -0.03624405 0.0051588914 0.012254505 0.026573498
0.004061645 0.010382322 0.002855779 0.035778366 -0.018221255 0.0010074228 0.017584367 0.026377663
-0.015873836 0.019397406 -0.003808425 0.00931498 0.009992666 0.02336004 -0.0015780872 0.035486568
-0.027034892 0.009093283 0.022684151 -0.015998675 0.010362144 -0.03479582 -0.0058259745 0.0024502005
0.011528646 -0.0030868268 0.0014748196 0.027947156 -0.00039625127 0.0023810815 -0.03218805 0.030668182
0.010112423 0.0071152104 0.013262618 -0.010711989 -0.0051885233 -0.020313354 0.0068921717 0.025053743
-0.0255254 -0.014483008 -0.003272558 -0.027428245 0.010099152 0.006981093 0.016697919 0.004178542
0.0093797445 0.036329184 0.016407983 -0.012579785 0.0106134135 0.011911794 0.0018749656 0.07068461
-0.010972064 0.028330412 -0.00033174476 0.0056884927 -0.02621405 0.027371857 -0.024556456 0.011358784
0.010932607 0.017301472 0.008601248 -0.023134712 0.013807997 0.012264321 0.003274385 0.030002091
-0.018818405 0.019778311 -0.00984201 0.01934836 -0.025122594 0.01032656 -0.0056229928 -0.0017926663
-0.01727559 -0.017511487 0.032213807 0.0075632306 -0.0266379 0.002100479 0.024297489 0.029122496
0.027887102 0.009693962 0.03379798 0.019624434 -0.013041549 -0.0006444711 0.015672546 0.041506067
0.0065933713 -0.0039199456 0.0026559725 -0.005878979 -0.009721801 -0.017438209 0.0059278687 0.008096431
-0.016996464 0.019421706 0.003157709 0.0017029515 -0.018964007 0.0015462606 0.012034542 -0.028555533
-0.018984947 0.026944607 -0.021873897 0.01659439 -0.015617857 -0.02096049 0.035915375 0.05043718
-0.016263383 0.011628055 0.027604992 0.01478906 -0.0073049795 -0.026393956 0.014735689 -0.006158602
-0.017245607 0.025259307 -0.0015236376 -0.012528984 0.012723328 0.013300517 0.011785975 0.020746427
0.00040338415 -0.010203011 -0.0036031737 0.0359015 -0.01005618 -0.014490915 -0.010715672 0.02088713
0.009012481 0.04286776 0.020565743 -0.00087572273 0.0253081 0.023552366 0.0070051714 0.0063352315
0.002871572 0.014343275 0.034284957 0.017787948 0.010470969 0.024097476 0.0013764239 -0.014998932
-0.0035721725 0.024740487 -0.007722118 0.022594783 0.012002163 0.023092493 -0.03123691 0.007583789
