models/topic_model/topic_embeddings.safetensors (safetensors, 45144 bytes, 1 tensors)

topic_embeddings f4 [11, 1024]
000000 bf 7c c9 ba 9f 41 89 3c f6 bc 9d bc 79 c3 9d 3c
       -0.001537226 0.016754923 -0.019255143 0.019258248
000010 b2 29 f4 bc 12 f4 9d bc 39 51 aa bb 81 fb 74 3c
       -0.029805038 -0.01928142 -0.005197671 0.014952541
000020 c9 dd 49 3c 36 c7 f3 3c 1a 41 35 3c 47 63 14 3c
       0.012320944 0.029758077 0.011062885 0.009056873
000030 6e f1 53 3c ff 17 bf bc 23 79 0a bd 6c 81 a2 bc
       0.012935979 -0.023326872 -0.03380693 -0.019837104
000040 bc f6 30 bc 25 5b 21 bc 11 9a 7a 3b 5b 88 cd 3c
       -0.010801014 -0.009848391 0.0038238803 0.025089433
000050 20 89 e2 3b 03 d3 00 3c 2c 7e d6 bc df 67 06 bd
       0.006913319 0.007862809 -0.02618321 -0.032813903
000060 20 4c c8 bc 1f 8f be 3c 07 ca b6 bb 9c 1b bb 3a
       -0.024450362 0.023261605 -0.0055782828 0.0014275196
000070 a0 94 64 3d 5e 7d 37 3d 29 48 b8 bc 79 35 c4 bc
       0.055805802 0.044797294 -0.022495346 -0.023951279
000080 80 0e e5 3c 64 ee f0 bc 0f cd ca bb d0 21 73 bc
       0.027961016 -0.029410549 -0.0061889957 -0.0148396045
000090 b5 2d ac 3c 15 f4 a6 bc 64 0b 8b bc 65 36 37 bd
       0.021017889 -0.02038006 -0.016973205 -0.04472961
0000a0 3e 3a 01 3a 57 a6 03 bd bf b6 eb 3c 35 0a f7 bc
       0.0004929638 -0.032141056 0.028773664 -0.030156234
0000b0 72 f3 dc bc 8f 7f c6 b9 86 6e cf bb 70 d6 79 bc
       -0.026971553 -0.00037860541 -0.006330314 -0.01524888
0000c0 57 4e 5b 3c 40 3e f1 bc d6 de ae bc 35 e0 b6 3c
       0.013385377 -0.029448628 -0.02134649 0.022323707
0000d0 ff 79 28 3c 49 72 83 bc ce dd 6f bc e0 44 58 bc
       0.010282992 -0.016045706 -0.014640285 -0.013200015
0000e0 74 31 9a bc 36 46 6d bc 32 ab 77 bc eb 0e 28 3b
       -0.01882241 -0.014482072 -0.0151165 0.0025643657
0000f0 66 9e f4 3c 30 2e 92 3b fc 26 dd 3c 1f 57 3a bd
       0.029860687 0.0044610724 0.026996128 -0.04549324
000100 67 db b3 3c 1e e6 99 3c fc 3f 06 bc 72 ef a5 3b
       0.021955205 0.018786486 -0.008193966 0.0050639445
000110 64 ab c5 3a 81 19 22 bc d6 11 25 bc b5 3f bb bb
       0.0015080986 -0.009893776 -0.010075053 -0.0057143816
000120 89 76 bb bc 5c 9c b1 bc c0 78 11 bc a4 4f f6 3b
       -0.02288367 -0.021681003 -0.008878887 0.007516818
000130 e4 48 c1 bb 59 fe 91 bc d1 ee 92 bb de 62 c0 3c
       -0.005898582 -0.017821478 -0.0044840355 0.023484644
000140 71 f4 c2 3b 90 4a b9 3c 0c e1 11 bc 6c 5b 20 3b
       0.00594955 0.022618562 -0.008903753 0.0024468554
000150 82 38 2e bd ec cc a1 3c 03 d8 83 bb 20 ac b4 3c
       -0.04253436 0.019751035 -0.0040235533 0.022054732
000160 c0 bd 4f bb 40 29 0a 3c 40 8a 27 bc ec dd 00 3d
       -0.0031698793 0.008432686 -0.010225832 0.03146164
000170 d6 2d ec bc e1 b4 99 3a 82 05 b0 3c 3f 40 09 3d
       -0.02883045 0.001172688 0.021487001 0.033508535
000180 64 eb 2b bc 6e 25 a9 3c 66 c4 49 bc 86 fa 49 3b
       -0.010493133 0.02064773 -0.012314891 0.003081949
000190 d1 a6 24 3c 02 8a da 3c 65 51 8d bb 92 68 29 3d
       0.010049538 0.026677135 -0.0043126815 0.04135949
0001a0 62 50 dd bc 0e fa c9 3a 3e 20 a4 3c d4 69 26 bc
       -0.027015869 0.0015409605 0.020034906 -0.010157067
0001b0 59 0b ea 3b 7a ac 21 bd e5 ec 07 bb e1 ff 50 3b
       0.007142466 -0.039471127 -0.0020740565 0.0031890797
0001c0 b9 24 0a bb 34 95 64 ba 32 55 c1 3b 75 53 f0 3c
       -0.0021079017 -0.0008719743 0.0059000487 0.02933667
0001d0 d9 94 3d 3a c4 0e 02 3b f7 d2 eb bc 6e 20 cc 3c
       0.0007231958 0.0019845227 -0.02878712 0.024917807
0001e0 2e 24 65 3b a9 90 8e 3b 37 60 11 3c db 52 7a bc
       0.0034964192 0.004350741 0.008873037 -0.015278543
0001f0 7a eb 80 bc 85 67 10 bd 57 2c 8e bb 9a 53 8c 3c
       -0.015737284 -0.035254974 -0.004338782 0.017129708
000200 cb 1f c5 bc 5d 19 1d bc 02 bc 91 bc df 7c 38 bd
       -0.024063012 -0.009588567 -0.017789844 -0.04504096
000210 8c 18 82 3c 99 56 8f 3c 48 de 87 3c 76 1f 62 3b
       0.015880845 0.017497348 0.016585484 0.0034503615
000220 90 e2 1f 3b 61 5b 10 3d 57 54 7b 3c c5 ca 8f bb
       0.0024396516 0.035243396 0.015339932 -0.0043881857
000230 b7 16 3d 3b 21 6e 4b 3c c4 05 c6 bb e5 44 a0 3d
       0.002885265 0.0124163935 -0.006043168 0.078256406
000240 1a dd a2 bb 80 20 3f 3d 05 7e a5 3b 0f d0 33 3c
       -0.004970205 0.046661854 0.005050423 0.010974898
000250 e2 83 9e bc c6 05 9e 3c 6e 5e a9 bc 20 5c 32 3c
       -0.019349996 0.019289862 -0.02067491 0.010886222
000260 25 2b d5 3b 3e f6 b0 3c e9 fe 9c 3c fe d1 22 bc
       0.0065053874 0.021601792 0.01916452 -0.009937761
000270 37 a0 81 3c 7e 8a a2 3c 43 73 06 3c 47 33 13 3d
       0.015823467 0.019841429 0.0082061915 0.035937574
000280 e0 77 e8 ba 94 c1 4c 3c ef 12 df bb 16 d4 ac 3c
       -0.0017735921 0.0124973245 -0.006807677 0.021097224
000290 d4 c8 37 bd 6a 3b 94 3c b6 1c e8 bb 34 64 cf bb
       -0.04486926 0.018094737 -0.0070835007 -0.006329084
0002a0 4f ee c1 bc 5b 7b ae bc 65 94 da 3c 37 62 0c 3b
       -0.023673205 -0.021299055 0.026682088 0.0021420845
0002b0 82 51 8d bc e6 da 5f 3b f2 4f a6 3c 07 e5 cd 3c
       -0.01725078 0.0034157573 0.020301793 0.025133623
0002c0 be 55 b9 3c 8c 1a 31 3c dc b6 2a 3d 6d 1e 8d 3c
       0.022623893 0.010809552 0.041678295 0.017226422
0002d0 f1 5a dc bb d4 a6 fb 3a db c0 2b 3c 6b 48 46 3d
       -0.0067247082 0.0019199499 0.010482992 0.048408907
0002e0 ec 7b 0c 3c a1 60 36 3c 79 83 4d 3b 7e da 0b 3b
       0.008574467 0.011131437 0.0031358881 0.0021339948
0002f0 36 8e 0d bc 34 62 dc bc 5f 2a 0a 3c 20 bf be 3c
       -0.008639863 -0.026902296 0.008432954 0.023284495
000300 a4 99 7e bc fe 1c 10 3c ba 10 fe bb 1c 96 13 3c
       -0.0155395605 0.008795975 -0.007753459 0.009007957
000310 e9 92 fc bc 49 79 8b bc e5 54 91 3c 80 c7 ec bc
       -0.030831771 -0.017025607 0.017740676 -0.028903723
000320 2c 2d a0 bc f2 5a 01 3d b5 01 f7 bc bf 81 9c 3c
       -0.01955279 0.031580873 -0.030152181 0.019104837
000330 3f 92 f8 bc cb 77 43 bc 3d 1d 0e 3d c9 08 81 3d
       -0.030343173 -0.011930416 0.034695853 0.06300504
000340 37 85 b4 bc d5 3a 06 3c a4 f5 10 3d 1a 05 f1 3c
       -0.022036178 0.008192738 0.03539051 0.029421378
000350 aa 8b 35 ba 2f af b3 bc 3a 8d dc 3b 96 d1 3f bb
       -0.00069254136 -0.02193412 0.0067307027 -0.002926921
000360 fa 19 64 bc 42 7b 2d 3d 41 b3 41 bc 0c d3 a4 bc
       -0.013922209 0.042353876 -0.011822523 -0.020120166
000370 10 3b 1a 3c 00 95 70 3c fe c0 3f 3c 27 86 d9 3c
       0.009413496 0.014683962 0.011703728 0.026553227
000380 f5 cf 5c 3b 1b 59 0e bc 51 64 05 3c dc 80 25 3d
       0.0033693288 -0.008688237 0.008141593 0.040406093
000390 11 04 63 3b 8b 24 45 bc f9 95 b7 3b f1 de c0 3c
       0.0034639875 -0.012032638 0.005602595 0.023543807
0003a0 a9 79 41 3c d9 ec 27 3d ae 4a eb 3c 1a 41 b0 bb
       0.011808791 0.04099736 0.028722133 -0.0053788545
0003b0 46 91 f1 3c 71 d7 87 3c 0e 64 7c 3c 5b 97 67 3b
       0.029488217 0.016582223 0.015404714 0.0035338018
0003c0 92 7b ea 3c b7 22 9f 3c 62 9f c0 3c a6 5a 03 3b
       0.028623376 0.019425733 0.0235135 0.0020043044
0003d0 74 e6 bb 3b 6e a5 9d 3c 0c ca 77 bc 50 14 e8 bc
       0.0057342593 0.019243922 -0.015123855 -0.028329998
0003e0 b6 71 44 3a a0 b6 f9 3c 46 03 7b bc 1a cf ea 3c
       0.0007493751 0.03048259 -0.015320605 0.028663207
0003f0 04 0e ce 3c c5 5d c1 3c f0 ed 08 bd 4b 7e 2d 3c
       0.025153168 0.023604283 -0.03343004 0.010589193
